…
mma=0.3, gpu='0', num_workers=4, dataset='imagenet', arch='resnet_50', save_plot=False, seed=1, lr_finetuning=0.03, epoch_finetuning=200, wd=0.002, data_dir='./data/imagenet/', print_freq=2000, num_classes=1000, device_ids=[0], device=device(type='cuda', index=0), name_base='')
10/29 04:03:07 PM | ----------------------------------------
10/29 04:03:07 PM | ==> Building model...
10/29 04:03:08 PM | ----------------------------------------
10/29 04:03:08 PM | ==> Loading weights into the model...
10/29 04:03:08 PM | ----------------------------------------
10/29 04:03:08 PM | ResNet50(
  (conv1): Conv2d(3, 64, kernel_size=(7, 7), stride=(2, 2), padding=(3, 3), bias=False)
  (bn1): BatchNorm2d(64, eps=1e-05, momentum=0.1, affine=True, track_running_stats=True)
  (relu): ReLU(inplace=True)
  (maxpool): MaxPool2d(kernel_size=3, stride=2, padding=1, dilation=1, ceil_mode=False)
  (layer1): ModuleList(
    (0): Bottleneck(
      (conv1): Conv2d(64, 64, kernel_size=(1, 1), stride=(1, 1), bias=False)
      (bn1): BatchNorm2d(64, eps=1e-05, momentum=0.1, affine=True, track_running_stats=True)
      (relu1): ReLU(inplace=True)
      (conv2): Conv2d(64, 64, kernel_size=(3, 3), stride=(1, 1), padding=(1, 1), bias=False)
      (bn2): BatchNorm2d(64, eps=1e-05, momentum=0.1, affine=True, track_running_stats=True)
      (relu2): ReLU(inplace=True)
      (conv3): Conv2d(64, 256, kernel_size=(1, 1), stride=(1, 1), bias=False)
      (bn3): BatchNorm2d(256, eps=1e-05, momentum=0.1, affine=True, track_running_stats=True)
      (downsample): Sequential(
        (0): Conv2d(64, 256, kernel_size=(1, 1), stride=(1, 1), bias=False)
        (1): BatchNorm2d(256, eps=1e-05, momentum=0.1, affine=True, track_running_stats=True)
      )
      (relu3): ReLU(inplace=True)
    )
    (1): Bottleneck(
      (conv1): Conv2d(256, 64, kernel_size=(1, 1), stride=(1, 1), bias=False)
      (bn1): BatchNorm2d(64, eps=1e-05, momentum=0.1, affine=True, track_running_stats=True)
      (relu1): ReLU(inplace=True)
      (conv2): Conv2d(64, 64, kernel_size=(3, 3), stride=(1, 1), padding=(1, 1), bias=False)
      (bn2): BatchNorm2d(64, eps=1e-05, momentum=0.1, affine=True, track_running_stats=True)
      (relu2): ReLU(inplace=True)
      (conv3): Conv2d(64, 256, kernel_size=(1, 1), stride=(1, 1), bias=False)
      (bn3): BatchNorm2d(256, eps=1e-05, momentum=0.1, affine=True, track_running_stats=True)
      (relu3): ReLU(inplace=True)
    )
    (2): Bottleneck(
      (conv1): Conv2d(256, 64, kernel_size=(1, 1), stride=(1, 1), bias=False)
      (bn1): BatchNorm2d(64, eps=1e-05, momentum=0.1, affine=True, track_running_stats=True)
      (relu1): ReLU(inplace=True)
      (conv2): Conv2d(64, 64, kernel_size=(3, 3), stride=(1, 1), padding=(1, 1), bias=False)
      (bn2): BatchNorm2d(64, eps=1e-05, momentum=0.1, affine=True, track_running_stats=True)
      (relu2): ReLU(inplace=True)
      (conv3): Conv2d(64, 256, kernel_size=(1, 1), stride=(1, 1), bias=False)
      (bn3): BatchNorm2d(256, eps=1e-05, momentum=0.1, affine=True, track_running_stats=True)
      (relu3): ReLU(inplace=True)
    )
  )
  (layer2): ModuleList(
    (0): Bottleneck(
      (conv1): Conv2d(256, 128, kernel_size=(1, 1), stride=(1, 1), bias=False)
      (bn1): BatchNorm2d(128, eps=1e-05, momentum=0.1, affine=True, track_running_stats=True)
      (relu1): ReLU(inplace=True)
      (conv2): Conv2d(128, 128, kernel_size=(3, 3), stride=(2, 2), padding=(1, 1), bias=False)
      (bn2): BatchNorm2d(128, eps=1e-05, momentum=0.1, affine=True, track_running_stats=True)
      (relu2): ReLU(inplace=True)
      (conv3): Conv2d(128, 512, kernel_size=(1, 1), stride=(1, 1), bias=False)
      (bn3): BatchNorm2d(512, eps=1e-05, momentum=0.1, affine=True, track_running_stats=True)
      (downsample): Sequential(
        (0): Conv2d(256, 512, kernel_size=(1, 1), stride=(2, 2), bias=False)
        (1): BatchNorm2d(512, eps=1e-05, momentum=0.1, affine=True, track_running_stats=True)
      )
      (relu3): ReLU(inplace=True)
    )
    (1): Bottleneck(
      (conv1): Conv2d(512, 128, kernel_size=(1, 1), stride=(1, 1), bias=False)
      (bn1): BatchNorm2d(128, eps=1e-05, momentum=0.1, affine=True, track_running_stats=True)
      (relu1): ReLU(inplace=True)
      (conv2): Conv2d(128, 128, kernel_size=(3, 3), stride=(1, 1), padding=(1, 1), bias=False)
      (bn2): BatchNorm2d(128, eps=1e-05, momentum=0.1, affine=True, track_running_stats=True)
      (relu2): ReLU(inplace=True)
      (conv3): Conv2d(128, 512, kernel_size=(1, 1), stride=(1, 1), bias=False)
      (bn3): BatchNorm2d(512, eps=1e-05, momentum=0.1, affine=True, track_running_stats=True)
      (relu3): ReLU(inplace=True)
    )
    (2): Bottleneck(
      (conv1): Conv2d(512, 128, kernel_size=(1, 1), stride=(1, 1), bias=False)
      (bn1): BatchNorm2d(128, eps=1e-05, momentum=0.1, affine=True, track_running_stats=True)
      (relu1): ReLU(inplace=True)
      (conv2): Conv2d(128, 128, kernel_size=(3, 3), stride=(1, 1), padding=(1, 1), bias=False)
      (bn2): BatchNorm2d(128, eps=1e-05, momentum=0.1, affine=True, track_running_stats=True)
      (relu2): ReLU(inplace=True)
      (conv3): Conv2d(128, 512, kernel_size=(1, 1), stride=(1, 1), bias=False)
      (bn3): BatchNorm2d(512, eps=1e-05, momentum=0.1, affine=True, track_running_stats=True)
      (relu3): ReLU(inplace=True)
    )
    (3): Bottleneck(
      (conv1): Conv2d(512, 128, kernel_size=(1, 1), stride=(1, 1), bias=False)
      (bn1): BatchNorm2d(128, eps=1e-05, momentum=0.1, affine=True, track_running_stats=True)
      (relu1): ReLU(inplace=True)
      (conv2): Conv2d(128, 128, kernel_size=(3, 3), stride=(1, 1), padding=(1, 1), bias=False)
      (bn2): BatchNorm2d(128, eps=1e-05, momentum=0.1, affine=True, track_running_stats=True)
      (relu2): ReLU(inplace=True)
      (conv3): Conv2d(128, 512, kernel_size=(1, 1), stride=(1, 1), bias=False)
      (bn3): BatchNorm2d(512, eps=1e-05, momentum=0.1, affine=True, track_running_stats=True)
      (relu3): ReLU(inplace=True)
    )
  )
  (layer3): ModuleList(
    (0): Bottleneck(
      (conv1): Conv2d(512, 256, kernel_size=(1, 1), stride=(1, 1), bias=False)
      (bn1): BatchNorm2d(256, eps=1e-05, momentum=0.1, affine=True, track_running_stats=True)
      (relu1): ReLU(inplace=True)
      (conv2): Conv2d(256, 256, kernel_size=(3, 3), stride=(2, 2), padding=(1, 1), bias=False)
      (bn2): BatchNorm2d(256, eps=1e-05, momentum=0.1, affine=True, track_running_stats=True)
      (relu2): ReLU(inplace=True)
      (conv3): Conv2d(256, 1024, kernel_size=(1, 1), stride=(1, 1), bias=False)
      (bn3): BatchNorm2d(1024, eps=1e-05, momentum=0.1, affine=True, track_running_stats=True)
      (downsample): Sequential(
        (0): Conv2d(512, 1024, kernel_size=(1, 1), stride=(2, 2), bias=False)
        (1): BatchNorm2d(1024, eps=1e-05, momentum=0.1, affine=True, track_running_stats=True)
      )
      (relu3): ReLU(inplace=True)
    )
    (1): Bottleneck(
      (conv1): Conv2d(1024, 256, kernel_size=(1, 1), stride=(1, 1), bias=False)
      (bn1): BatchNorm2d(256, eps=1e-05, momentum=0.1, affine=True, track_running_stats=True)
      (relu1): ReLU(inplace=True)
      (conv2): Conv2d(256, 256, kernel_size=(3, 3), stride=(1, 1), padding=(1, 1), bias=False)
      (bn2): BatchNorm2d(256, eps=1e-05, momentum=0.1, affine=True, track_running_stats=True)
      (relu2): ReLU(inplace=True)
      (conv3): Conv2d(256, 1024, kernel_size=(1, 1), stride=(1, 1), bias=False)
      (bn3): BatchNorm2d(1024, eps=1e-05, momentum=0.1, affine=True, track_running_stats=True)
      (relu3): ReLU(inplace=True)
    )
    (2): Bottleneck(
      (conv1): Conv2d(1024, 256, kernel_size=(1, 1), stride=(1, 1), bias=False)
      (bn1): BatchNorm2d(256, eps=1e-05, momentum=0.1, affine=True, track_running_stats=True)
      (relu1): ReLU(inplace=True)
      (conv2): Conv2d(256, 256, kernel_size=(3, 3), stride=(1, 1), padding=(1, 1), bias=False)
      (bn2): BatchNorm2d(256, eps=1e-05, momentum=0.1, affine=True, track_running_stats=True)
      (relu2): ReLU(inplace=True)
      (conv3): Conv2d(256, 1024, kernel_size=(1, 1), stride=(1, 1), bias=False)
      (bn3): BatchNorm2d(1024, eps=1e-05, momentum=0.1, affine=True, track_running_stats=True)
      (relu3): ReLU(inplace=True)
    )
    (3): Bottleneck(
      (conv1): Conv2d(1024, 256, kernel_size=(1, 1), stride=(1, 1), bias=False)
      (bn1): BatchNorm2d(256, eps=1e-05, momentum=0.1, affine=True, track_running_stats=True)
      (relu1): ReLU(inplace=True)
      (conv2): Conv2d(256, 256, kernel_size=(3, 3), stride=(1, 1), padding=(1, 1), bias=False)
      (bn2): BatchNorm2d(256, eps=1e-05, momentum=0.1, affine=True, track_running_stats=True)
      (relu2): ReLU(inplace=True)
      (conv3): Conv2d(256, 1024, kernel_size=(1, 1), stride=(1, 1), bias=False)
      (bn3): BatchNorm2d(1024, eps=1e-05, momentum=0.1, affine=True, track_running_stats=True)
      (relu3): ReLU(inplace=True)
    )
    (4): Bottleneck(
      (conv1): Conv2d(1024, 256, kernel_size=(1, 1), stride=(1, 1), bias=False)
      (bn1): BatchNorm2d(256, eps=1e-05, momentum=0.1, affine=True, track_running_stats=True)
      (relu1): ReLU(inplace=True)
      (conv2): Conv2d(256, 256, kernel_size=(3, 3), stride=(1, 1), padding=(1, 1), bias=False)
      (bn2): BatchNorm2d(256, eps=1e-05, momentum=0.1, affine=True, track_running_stats=True)
      (relu2): ReLU(inplace=True)
      (conv3): Conv2d(256, 1024, kernel_size=(1, 1), stride=(1, 1), bias=False)
      (bn3): BatchNorm2d(1024, eps=1e-05, momentum=0.1, affine=True, track_running_stats=True)
      (relu3): ReLU(inplace=True)
    )
    (5): Bottleneck(
      (conv1): Conv2d(1024, 256, kernel_size=(1, 1), stride=(1, 1), bias=False)
      (bn1): BatchNorm2d(256, eps=1e-05, momentum=0.1, affine=True, track_running_stats=True)
      (relu1): ReLU(inplace=True)
      (conv2): Conv2d(256, 256, kernel_size=(3, 3), stride=(1, 1), padding=(1, 1), bias=False)
      (bn2): BatchNorm2d(256, eps=1e-05, momentum=0.1, affine=True, track_running_stats=True)
      (relu2): ReLU(inplace=True)
      (conv3): Conv2d(256, 1024, kernel_size=(1, 1), stride=(1, 1), bias=False)
      (bn3): BatchNorm2d(1024, eps=1e-05, momentum=0.1, affine=True, track_running_stats=True)
      (relu3): ReLU(inplace=True)
    )
  )
  (layer4): ModuleList(
    (0): Bottleneck(
      (conv1): Conv2d(1024, 512, kernel_size=(1, 1), stride=(1, 1), bias=False)
      (bn1): BatchNorm2d(512, eps=1e-05, momentum=0.1, affine=True, track_running_stats=True)
      (relu1): ReLU(inplace=True)
      (conv2): Conv2d(512, 512, kernel_size=(3, 3), stride=(2, 2), padding=(1, 1), bias=False)
      (bn2): BatchNorm2d(512, eps=1e-05, momentum=0.1, affine=True, track_running_stats=True)
      (relu2): ReLU(inplace=True)
      (conv3): Conv2d(512, 2048, kernel_size=(1, 1), stride=(1, 1), bias=False)
      (bn3): BatchNorm2d(2048, eps=1e-05, momentum=0.1, affine=True, track_running_stats=True)
      (downsample): Sequential(
        (0): Conv2d(1024, 2048, kernel_size=(1, 1), stride=(2, 2), bias=False)
        (1): BatchNorm2d(2048, eps=1e-05, momentum=0.1, affine=True, track_running_stats=True)
      )
      (relu3): ReLU(inplace=True)
    )
    (1): Bottleneck(
      (conv1): Conv2d(2048, 512, kernel_size=(1, 1), stride=(1, 1), bias=False)
      (bn1): BatchNorm2d(512, eps=1e-05, momentum=0.1, affine=True, track_running_stats=True)
      (relu1): ReLU(inplace=True)
      (conv2): Conv2d(512, 512, kernel_size=(3, 3), stride=(1, 1), padding=(1, 1), bias=False)
      (bn2): BatchNorm2d(512, eps=1e-05, momentum=0.1, affine=True, track_running_stats=True)
      (relu2): ReLU(inplace=True)
      (conv3): Conv2d(512, 2048, kernel_size=(1, 1), stride=(1, 1), bias=False)
      (bn3): BatchNorm2d(2048, eps=1e-05, momentum=0.1, affine=True, track_running_stats=True)
      (relu3): ReLU(inplace=True)
    )
    (2): Bottleneck(
      (conv1): Conv2d(2048, 512, kernel_size=(1, 1), stride=(1, 1), bias=False)
      (bn1): BatchNorm2d(512, eps=1e-05, momentum=0.1, affine=True, track_running_stats=True)
      (relu1): ReLU(inplace=True)
      (conv2): Conv2d(512, 512, kernel_size=(3, 3), stride=(1, 1), padding=(1, 1), bias=False)
      (bn2): BatchNorm2d(512, eps=1e-05, momentum=0.1, affine=True, track_running_stats=True)
      (relu2): ReLU(inplace=True)
      (conv3): Conv2d(512, 2048, kernel_size=(1, 1), stride=(1, 1), bias=False)
      (bn3): BatchNorm2d(2048, eps=1e-05, momentum=0.1, affine=True, track_running_stats=True)
      (relu3): ReLU(inplace=True)
    )
  )
  (avgpool): AdaptiveAvgPool2d(output_size=(1, 1))
  (fc): Linear(in_features=2048, out_features=1000, bias=True)
)
10/29 04:05:29 PM | Save modules info...
10/29 04:05:29 PM | FLOPS pruning ratio is 0.57
10/29 04:05:29 PM | Pruning with information flow
10/29 04:05:29 PM | -----
10/29 04:05:29 PM | module: Conv2d(3, 64, kernel_size=(7, 7), stride=(2, 2), padding=(3, 3), bias=False)
10/29 04:05:29 PM | cin: None
10/29 04:05:29 PM | cout: [0]
10/29 04:05:29 PM | inactive
…
10/29 05:38:27 PM | Testing threshold 0.6055968999862529
10/29 05:38:27 PM | Distance to target: 522,112
10/29 05:38:27 PM | Testing threshold 0.60559689998626
10/29 05:38:28 PM | Distance to target: 522,112
10/29 05:38:28 PM | Testing threshold 0.6055968999862635
10/29 05:38:28 PM | Distance to target: 522,112
10/29 05:38:28 PM | Testing threshold 0.6055968999862653
10/29 05:38:28 PM | Distance to target: 522,112
10/29 05:38:28 PM | Testing threshold 0.6055968999862662
10/29 05:38:28 PM | Distance to target: 522,112
10/29 05:41:22 PM | attribution_score[0:12]: 
[ … 10/29 05:41:23 PM | ResNet50(
  (conv1): Conv2d(3, 54, kernel_size=(7, 7), stride=(2, 2), padding=(3, 3), bias=False)
  (bn1): BatchNorm2d(54, eps=1e-05, momentum=0.1, affine=True, track_running_stats=True)
  (relu): ReLU(inplace=True)
  (maxpool): MaxPool2d(kernel_size=3, stride=2, padding=1, dilation=1, ceil_mode=False)
  (layer1): ModuleList(
    (0): Bottleneck(
      (conv1): Conv2d(54, 40, kernel_size=(1, 1), stride=(1, 1), bias=False)
      (bn1): BatchNorm2d(40, eps=1e-05, momentum=0.1, affine=True, track_running_stats=True)
      (relu1): ReLU(inplace=True)
      (conv2): Conv2d(40, 31, kernel_size=(3, 3), stride=(1, 1), padding=(1, 1), bias=False)
      (bn2): BatchNorm2d(31, eps=1e-05, momentum=0.1, affine=True, track_running_stats=True)
      (relu2): ReLU(inplace=True)
      (conv3): Conv2d(31, 194, kernel_size=(1, 1), stride=(1, 1), bias=False)
      (bn3): BatchNorm2d(194, eps=1e-05, momentum=0.1, affine=True, track_running_stats=True)
      (downsample): Sequential(
        (0): Conv2d(54, 194, kernel_size=(1, 1), stride=(1, 1), bias=False)
        (1): BatchNorm2d(194, eps=1e-05, momentum=0.1, affine=True, track_running_stats=True)
      )
      (relu3): ReLU(inplace=True)
    )
    (1): Bottleneck(
      (conv1): Conv2d(194, 7, kernel_size=(1, 1), stride=(1, 1), bias=False)
      (bn1): BatchNorm2d(7, eps=1e-05, momentum=0.1, affine=True, track_running_stats=True)
      (relu1): ReLU(inplace=True)
      (conv2): Conv2d(7, 17, kernel_size=(3, 3), stride=(1, 1), padding=(1, 1), bias=False)
      (bn2): BatchNorm2d(17, eps=1e-05, momentum=0.1, affine=True, track_running_stats=True)
      (relu2): ReLU(inplace=True)
      (conv3): Conv2d(17, 194, kernel_size=(1, 1), stride=(1, 1), bias=False)
      (bn3): BatchNorm2d(194, eps=1e-05, momentum=0.1, affine=True, track_running_stats=True)
      (relu3): ReLU(inplace=True)
    )
    (2): Bottleneck(
      (conv1): Conv2d(194, 10, kernel_size=(1, 1), stride=(1, 1), bias=False)
      (bn1): BatchNorm2d(10, eps=1e-05, momentum=0.1, affine=True, track_running_stats=True)
      (relu1): ReLU(inplace=True)
      (conv2): Conv2d(10, 13, kernel_size=(3, 3), stride=(1, 1), padding=(1, 1), bias=False)
      (bn2): BatchNorm2d(13, eps=1e-05, momentum=0.1, affine=True, track_running_stats=True)
      (relu2): ReLU(inplace=True)
      (conv3): Conv2d(13, 194, kernel_size=(1, 1), stride=(1, 1), bias=False)
      (bn3): BatchNorm2d(194, eps=1e-05, momentum=0.1, affine=True, track_running_stats=True)
      (relu3): ReLU(inplace=True)
    )
  )
  (layer2): ModuleList(
    (0): Bottleneck(
      (conv1): Conv2d(194, 59, kernel_size=(1, 1), stride=(1, 1), bias=False)
      (bn1): BatchNorm2d(59, eps=1e-05, momentum=0.1, affine=True, track_running_stats=True)
      (relu1): ReLU(inplace=True)
      (conv2): Conv2d(59, 101, kernel_size=(3, 3), stride=(2, 2), padding=(1, 1), bias=False)
      (bn2): BatchNorm2d(101, eps=1e-05, momentum=0.1, affine=True, track_running_stats=True)
      (relu2): ReLU(inplace=True)
      (conv3): Conv2d(101, 459, kernel_size=(1, 1), stride=(1, 1), bias=False)
      (bn3): BatchNorm2d(459, eps=1e-05, momentum=0.1, affine=True, track_running_stats=True)
      (downsample): Sequential(
        (0): Conv2d(194, 459, kernel_size=(1, 1), stride=(2, 2), bias=False)
        (1): BatchNorm2d(459, eps=1e-05, momentum=0.1, affine=True, track_running_stats=True)
      )
      (relu3): ReLU(inplace=True)
    )
    (1): Bottleneck(
      (conv1): Conv2d(459, 41, kernel_size=(1, 1), stride=(1, 1), bias=False)
      (bn1): BatchNorm2d(41, eps=1e-05, momentum=0.1, affine=True, track_running_stats=True)
      (relu1): ReLU(inplace=True)
      (conv2): Conv2d(41, 71, kernel_size=(3, 3), stride=(1, 1), padding=(1, 1), bias=False)
      (bn2): BatchNorm2d(71, eps=1e-05, momentum=0.1, affine=True, track_running_stats=True)
      (relu2): ReLU(inplace=True)
      (conv3): Conv2d(71, 459, kernel_size=(1, 1), stride=(1, 1), bias=False)
      (bn3): BatchNorm2d(459, eps=1e-05, momentum=0.1, affine=True, track_running_stats=True)
      (relu3): ReLU(inplace=True)
    )
    (2): Bottleneck(
      (conv1): Conv2d(459, 63, kernel_size=(1, 1), stride=(1, 1), bias=False)
      (bn1): BatchNorm2d(63, eps=1e-05, momentum=0.1, affine=True, track_running_stats=True)
      (relu1): ReLU(inplace=True)
      (conv2): Conv2d(63, 79, kernel_size=(3, 3), stride=(1, 1), padding=(1, 1), bias=False)
      (bn2): BatchNorm2d(79, eps=1e-05, momentum=0.1, affine=True, track_running_stats=True)
      (relu2): ReLU(inplace=True)
      (conv3): Conv2d(79, 459, kernel_size=(1, 1), stride=(1, 1), bias=False)
      (bn3): BatchNorm2d(459, eps=1e-05, momentum=0.1, affine=True, track_running_stats=True)
      (relu3): ReLU(inplace=True)
    )
    (3): Bottleneck(
      (conv1): Conv2d(459, 66, kernel_size=(1, 1), stride=(1, 1), bias=False)
      (bn1): BatchNorm2d(66, eps=1e-05, momentum=0.1, affine=True, track_running_stats=True)
      (relu1): ReLU(inplace=True)
      (conv2): Conv2d(66, 97, kernel_size=(3, 3), stride=(1, 1), padding=(1, 1), bias=False)
      (bn2): BatchNorm2d(97, eps=1e-05, momentum=0.1, affine=True, track_running_stats=True)
      (relu2): ReLU(inplace=True)
      (conv3): Conv2d(97, 459, kernel_size=(1, 1), stride=(1, 1), bias=False)
      (bn3): BatchNorm2d(459, eps=1e-05, momentum=0.1, affine=True, track_running_stats=True)
      (relu3): ReLU(inplace=True)
    )
  )
  (layer3): ModuleList(
    (0): Bottleneck(
      (conv1): Conv2d(459, 193, kernel_size=(1, 1), stride=(1, 1), bias=False)
      (bn1): BatchNorm2d(193, eps=1e-05, momentum=0.1, affine=True, track_running_stats=True)
      (relu1): ReLU(inplace=True)
      (conv2): Conv2d(193, 232, kernel_size=(3, 3), stride=(2, 2), padding=(1, 1), bias=False)
      (bn2): BatchNorm2d(232, eps=1e-05, momentum=0.1, affine=True, track_running_stats=True)
      (relu2): ReLU(inplace=True)
      (conv3): Conv2d(232, 872, kernel_size=(1, 1), stride=(1, 1), bias=False)
      (bn3): BatchNorm2d(872, eps=1e-05, momentum=0.1, affine=True, track_running_stats=True)
      (downsample): Sequential(
        (0): Conv2d(459, 872, kernel_size=(1, 1), stride=(2, 2), bias=False)
        (1): BatchNorm2d(872, eps=1e-05, momentum=0.1, affine=True, track_running_stats=True)
      )
      (relu3): ReLU(inplace=True)
    )
    (1): Bottleneck(
      (conv1): Conv2d(872, 140, kernel_size=(1, 1), stride=(1, 1), bias=False)
      (bn1): BatchNorm2d(140, eps=1e-05, momentum=0.1, affine=True, track_running_stats=True)
      (relu1): ReLU(inplace=True)
      (conv2): Conv2d(140, 151, kernel_size=(3, 3), stride=(1, 1), padding=(1, 1), bias=False)
      (bn2): BatchNorm2d(151, eps=1e-05, momentum=0.1, affine=True, track_running_stats=True)
      (relu2): ReLU(inplace=True)
      (conv3): Conv2d(151, 872, kernel_size=(1, 1), stride=(1, 1), bias=False)
      (bn3): BatchNorm2d(872, eps=1e-05, momentum=0.1, affine=True, track_running_stats=True)
      (relu3): ReLU(inplace=True)
    )
    (2): Bottleneck(
      (conv1): Conv2d(872, 138, kernel_size=(1, 1), stride=(1, 1), bias=False)
      (bn1): BatchNorm2d(138, eps=1e-05, momentum=0.1, affine=True, track_running_stats=True)
      (relu1): ReLU(inplace=True)
      (conv2): Conv2d(138, 190, kernel_size=(3, 3), stride=(1, 1), padding=(1, 1), bias=False)
      (bn2): BatchNorm2d(190, eps=1e-05, momentum=0.1, affine=True, track_running_stats=True)
      (relu2): ReLU(inplace=True)
      (conv3): Conv2d(190, 872, kernel_size=(1, 1), stride=(1, 1), bias=False)
      (bn3): BatchNorm2d(872, eps=1e-05, momentum=0.1, affine=True, track_running_stats=True)
      (relu3): ReLU(inplace=True)
    )
    (3): Bottleneck(
      (conv1): Conv2d(872, 139, kernel_size=(1, 1), stride=(1, 1), bias=False)
      (bn1): BatchNorm2d(139, eps=1e-05, momentum=0.1, affine=True, track_running_stats=True)
      (relu1): ReLU(inplace=True)
      (conv2): Conv2d(139, 147, kernel_size=(3, 3), stride=(1, 1), padding=(1, 1), bias=False)
      (bn2): BatchNorm2d(147, eps=1e-05, momentum=0.1, affine=True, track_running_stats=True)
      (relu2): ReLU(inplace=True)
      (conv3): Conv2d(147, 872, kernel_size=(1, 1), stride=(1, 1), bias=False)
      (bn3): BatchNorm2d(872, eps=1e-05, momentum=0.1, affine=True, track_running_stats=True)
      (relu3): ReLU(inplace=True)
    )
    (4): Bottleneck(
      (conv1): Conv2d(872, 135, kernel_size=(1, 1), stride=(1, 1), bias=False)
      (bn1): BatchNorm2d(135, eps=1e-05, momentum=0.1, affine=True, track_running_stats=True)
      (relu1): ReLU(inplace=True)
      (conv2): Conv2d(135, 127, kernel_size=(3, 3), stride=(1, 1), padding=(1, 1), bias=False)
      (bn2): BatchNorm2d(127, eps=1e-05, momentum=0.1, affine=True, track_running_stats=True)
      (relu2): ReLU(inplace=True)
      (conv3): Conv2d(127, 872, kernel_size=(1, 1), stride=(1, 1), bias=False)
      (bn3): BatchNorm2d(872, eps=1e-05, momentum=0.1, affine=True, track_running_stats=True)
      (relu3): ReLU(inplace=True)
    )
    (5): Bottleneck(
      (conv1): Conv2d(872, 135, kernel_size=(1, 1), stride=(1, 1), bias=False)
      (bn1): BatchNorm2d(135, eps=1e-05, momentum=0.1, affine=True, track_running_stats=True)
      (relu1): ReLU(inplace=True)
      (conv2): Conv2d(135, 136, kernel_size=(3, 3), stride=(1, 1), padding=(1, 1), bias=False)
      (bn2): BatchNorm2d(136, eps=1e-05, momentum=0.1, affine=True, track_running_stats=True)
      (relu2): ReLU(inplace=True)
      (conv3): Conv2d(136, 872, kernel_size=(1, 1), stride=(1, 1), bias=False)
      (bn3): BatchNorm2d(872, eps=1e-05, momentum=0.1, affine=True, track_running_stats=True)
      (relu3): ReLU(inplace=True)
    )
  )
  (layer4): ModuleList(
    (0): Bottleneck(
      (conv1): Conv2d(872, 436, kernel_size=(1, 1), stride=(1, 1), bias=False)
      (bn1): BatchNorm2d(436, eps=1e-05, momentum=0.1, affine=True, track_running_stats=True)
      (relu1): ReLU(inplace=True)
      (conv2): Conv2d(436, 464, kernel_size=(3, 3), stride=(2, 2), padding=(1, 1), bias=False)
      (bn2): BatchNorm2d(464, eps=1e-05, momentum=0.1, affine=True, track_running_stats=True)
      (relu2): ReLU(inplace=True)
      (conv3): Conv2d(464, 1780, kernel_size=(1, 1), stride=(1, 1), bias=False)
      (bn3): BatchNorm2d(1780, eps=1e-05, momentum=0.1, affine=True, track_running_stats=True)
      (downsample): Sequential(
        (0): Conv2d(872, 1780, kernel_size=(1, 1), stride=(2, 2), bias=False)
        (1): BatchNorm2d(1780, eps=1e-05, momentum=0.1, affine=True, track_running_stats=True)
      )
      (relu3): ReLU(inplace=True)
    )
    (1): Bottleneck(
      (conv1): Conv2d(1780, 437, kernel_size=(1, 1), stride=(1, 1), bias=False)
      (bn1): BatchNorm2d(437, eps=1e-05, momentum=0.1, affine=True, track_running_stats=True)
      (relu1): ReLU(inplace=True)
      (conv2): Conv2d(437, 438, kernel_size=(3, 3), stride=(1, 1), padding=(1, 1), bias=False)
      (bn2): BatchNorm2d(438, eps=1e-05, momentum=0.1, affine=True, track_running_stats=True)
      (relu2): ReLU(inplace=True)
      (conv3): Conv2d(438, 1780, kernel_size=(1, 1), stride=(1, 1), bias=False)
      (bn3): BatchNorm2d(1780, eps=1e-05, momentum=0.1, affine=True, track_running_stats=True)
      (relu3): ReLU(inplace=True)
    )
    (2): Bottleneck(
      (conv1): Conv2d(1780, 447, kernel_size=(1, 1), stride=(1, 1), bias=False)
      (bn1): BatchNorm2d(447, eps=1e-05, momentum=0.1, affine=True, track_running_stats=True)
      (relu1): ReLU(inplace=True)
      (conv2): Conv2d(447, 415, kernel_size=(3, 3), stride=(1, 1), padding=(1, 1), bias=False)
      (bn2): BatchNorm2d(415, eps=1e-05, momentum=0.1, affine=True, track_running_stats=True)
      (relu2): ReLU(inplace=True)
      (conv3): Conv2d(415, 1780, kernel_size=(1, 1), stride=(1, 1), bias=False)
      (bn3): BatchNorm2d(1780, eps=1e-05, momentum=0.1, affine=True, track_running_stats=True)
      (relu3): ReLU(inplace=True)
    )
  )
  (avgpool): AdaptiveAvgPool2d(output_size=(1, 1))
  (fc): Linear(in_features=1780, out_features=1000, bias=True)
)
10/29 05:43:26 PM | ----------------------------------------
10/29 05:43:26 PM | Performances input model:
10/29 05:43:26 PM |  - flops: 4,111,514,624
10/29 05:43:26 PM |  - params: 25,557,032
10/29 05:43:26 PM |  - accuracy: 76.13399505615234
10/29 05:43:26 PM | ----------------------------------------
10/29 05:43:26 PM | Performances pseudo-pruned model:
…
