…
, gamma=0.2, gpu='4', num_workers=4, dataset='cifar10', arch='densenet_40', save_plot=False, seed=9, lr_finetuning=0.02, epoch_finetuning=200, wd=0.002, data_dir='./data/cifar10/', print_freq=50, num_classes=10, device_ids=[4], device=device(type='cuda', index=0), name_base='')
11/11 04:47:47 AM | ----------------------------------------
11/11 04:47:47 AM | ==> Building model...
11/11 04:47:47 AM | ----------------------------------------
11/11 04:47:47 AM | ==> Loading weights into the model...
11/11 04:47:47 AM | ----------------------------------------
11/11 04:47:47 AM | DenseNet(
  (conv1): Conv2d(3, 18, kernel_size=(3, 3), stride=(1, 1), padding=(1, 1), bias=False)
  (dense1): Sequential(
    (0): DenseBasicBlock(
      (bn1): BatchNorm2d(18, eps=1e-05, momentum=0.1, affine=True, track_running_stats=True)
      (relu): ReLU(inplace=True)
      (conv1): Conv2d(18, 10, kernel_size=(3, 3), stride=(1, 1), padding=(1, 1), bias=False)
    )
    (1): DenseBasicBlock(
      (bn1): BatchNorm2d(28, eps=1e-05, momentum=0.1, affine=True, track_running_stats=True)
      (relu): ReLU(inplace=True)
      (conv1): Conv2d(28, 6, kernel_size=(3, 3), stride=(1, 1), padding=(1, 1), bias=False)
    )
    (2): DenseBasicBlock(
      (bn1): BatchNorm2d(34, eps=1e-05, momentum=0.1, affine=True, track_running_stats=True)
      (relu): ReLU(inplace=True)
      (conv1): Conv2d(34, 11, kernel_size=(3, 3), stride=(1, 1), padding=(1, 1), bias=False)
    )
    (3): DenseBasicBlock(
      (bn1): BatchNorm2d(45, eps=1e-05, momentum=0.1, affine=True, track_running_stats=True)
      (relu): ReLU(inplace=True)
      (conv1): Conv2d(45, 9, kernel_size=(3, 3), stride=(1, 1), padding=(1, 1), bias=False)
    )
    (4): DenseBasicBlock(
      (bn1): BatchNorm2d(54, eps=1e-05, momentum=0.1, affine=True, track_running_stats=True)
      (relu): ReLU(inplace=True)
      (conv1): Conv2d(54, 9, kernel_size=(3, 3), stride=(1, 1), padding=(1, 1), bias=False)
    )
    (5): DenseBasicBlock(
      (bn1): BatchNorm2d(63, eps=1e-05, momentum=0.1, affine=True, track_running_stats=True)
      (relu): ReLU(inplace=True)
      (conv1): Conv2d(63, 9, kernel_size=(3, 3), stride=(1, 1), padding=(1, 1), bias=False)
    )
    (6): DenseBasicBlock(
      (bn1): BatchNorm2d(72, eps=1e-05, momentum=0.1, affine=True, track_running_stats=True)
      (relu): ReLU(inplace=True)
      (conv1): Conv2d(72, 9, kernel_size=(3, 3), stride=(1, 1), padding=(1, 1), bias=False)
    )
    (7): DenseBasicBlock(
      (bn1): BatchNorm2d(81, eps=1e-05, momentum=0.1, affine=True, track_running_stats=True)
      (relu): ReLU(inplace=True)
      (conv1): Conv2d(81, 8, kernel_size=(3, 3), stride=(1, 1), padding=(1, 1), bias=False)
    )
    (8): DenseBasicBlock(
      (bn1): BatchNorm2d(89, eps=1e-05, momentum=0.1, affine=True, track_running_stats=True)
      (relu): ReLU(inplace=True)
      (conv1): Conv2d(89, 6, kernel_size=(3, 3), stride=(1, 1), padding=(1, 1), bias=False)
    )
    (9): DenseBasicBlock(
      (bn1): BatchNorm2d(95, eps=1e-05, momentum=0.1, affine=True, track_running_stats=True)
      (relu): ReLU(inplace=True)
      (conv1): Conv2d(95, 2, kernel_size=(3, 3), stride=(1, 1), padding=(1, 1), bias=False)
    )
    (10): DenseBasicBlock(
      (bn1): BatchNorm2d(97, eps=1e-05, momentum=0.1, affine=True, track_running_stats=True)
      (relu): ReLU(inplace=True)
      (conv1): Conv2d(97, 4, kernel_size=(3, 3), stride=(1, 1), padding=(1, 1), bias=False)
    )
    (11): DenseBasicBlock(
      (bn1): BatchNorm2d(101, eps=1e-05, momentum=0.1, affine=True, track_running_stats=True)
      (relu): ReLU(inplace=True)
      (conv1): Conv2d(101, 4, kernel_size=(3, 3), stride=(1, 1), padding=(1, 1), bias=False)
    )
  )
  (trans1): Transition(
    (bn1): BatchNorm2d(105, eps=1e-05, momentum=0.1, affine=True, track_running_stats=True)
    (relu): ReLU(inplace=True)
    (conv1): Conv2d(105, 91, kernel_size=(1, 1), stride=(1, 1), bias=False)
    (avgpool): AvgPool2d(kernel_size=2, stride=2, padding=0)
  )
  (dense2): Sequential(
    (0): DenseBasicBlock(
      (bn1): BatchNorm2d(91, eps=1e-05, momentum=0.1, affine=True, track_running_stats=True)
      (relu): ReLU(inplace=True)
      (conv1): Conv2d(91, 12, kernel_size=(3, 3), stride=(1, 1), padding=(1, 1), bias=False)
    )
    (1): DenseBasicBlock(
      (bn1): BatchNorm2d(103, eps=1e-05, momentum=0.1, affine=True, track_running_stats=True)
      (relu): ReLU(inplace=True)
      (conv1): Conv2d(103, 11, kernel_size=(3, 3), stride=(1, 1), padding=(1, 1), bias=False)
    )
    (2): DenseBasicBlock(
      (bn1): BatchNorm2d(114, eps=1e-05, momentum=0.1, affine=True, track_running_stats=True)
      (relu): ReLU(inplace=True)
      (conv1): Conv2d(114, 10, kernel_size=(3, 3), stride=(1, 1), padding=(1, 1), bias=False)
    )
    (3): DenseBasicBlock(
      (bn1): BatchNorm2d(124, eps=1e-05, momentum=0.1, affine=True, track_running_stats=True)
      (relu): ReLU(inplace=True)
      (conv1): Conv2d(124, 9, kernel_size=(3, 3), stride=(1, 1), padding=(1, 1), bias=False)
    )
    (4): DenseBasicBlock(
      (bn1): BatchNorm2d(133, eps=1e-05, momentum=0.1, affine=True, track_running_stats=True)
      (relu): ReLU(inplace=True)
      (conv1): Conv2d(133, 7, kernel_size=(3, 3), stride=(1, 1), padding=(1, 1), bias=False)
    )
    (5): DenseBasicBlock(
      (bn1): BatchNorm2d(140, eps=1e-05, momentum=0.1, affine=True, track_running_stats=True)
      (relu): ReLU(inplace=True)
      (conv1): Conv2d(140, 9, kernel_size=(3, 3), stride=(1, 1), padding=(1, 1), bias=False)
    )
    (6): DenseBasicBlock(
      (bn1): BatchNorm2d(149, eps=1e-05, momentum=0.1, affine=True, track_running_stats=True)
      (relu): ReLU(inplace=True)
      (conv1): Conv2d(149, 9, kernel_size=(3, 3), stride=(1, 1), padding=(1, 1), bias=False)
    )
    (7): DenseBasicBlock(
      (bn1): BatchNorm2d(158, eps=1e-05, momentum=0.1, affine=True, track_running_stats=True)
      (relu): ReLU(inplace=True)
      (conv1): Conv2d(158, 9, kernel_size=(3, 3), stride=(1, 1), padding=(1, 1), bias=False)
    )
    (8): DenseBasicBlock(
      (bn1): BatchNorm2d(167, eps=1e-05, momentum=0.1, affine=True, track_running_stats=True)
      (relu): ReLU(inplace=True)
      (conv1): Conv2d(167, 8, kernel_size=(3, 3), stride=(1, 1), padding=(1, 1), bias=False)
    )
    (9): DenseBasicBlock(
      (bn1): BatchNorm2d(175, eps=1e-05, momentum=0.1, affine=True, track_running_stats=True)
      (relu): ReLU(inplace=True)
      (conv1): Conv2d(175, 8, kernel_size=(3, 3), stride=(1, 1), padding=(1, 1), bias=False)
    )
    (10): DenseBasicBlock(
      (bn1): BatchNorm2d(183, eps=1e-05, momentum=0.1, affine=True, track_running_stats=True)
      (relu): ReLU(inplace=True)
      (conv1): Conv2d(183, 6, kernel_size=(3, 3), stride=(1, 1), padding=(1, 1), bias=False)
    )
    (11): DenseBasicBlock(
      (bn1): BatchNorm2d(189, eps=1e-05, momentum=0.1, affine=True, track_running_stats=True)
      (relu): ReLU(inplace=True)
      (conv1): Conv2d(189, 7, kernel_size=(3, 3), stride=(1, 1), padding=(1, 1), bias=False)
    )
  )
  (trans2): Transition(
    (bn1): BatchNorm2d(196, eps=1e-05, momentum=0.1, affine=True, track_running_stats=True)
    (relu): ReLU(inplace=True)
    (conv1): Conv2d(196, 225, kernel_size=(1, 1), stride=(1, 1), bias=False)
    (avgpool): AvgPool2d(kernel_size=2, stride=2, padding=0)
  )
  (dense3): Sequential(
    (0): DenseBasicBlock(
      (bn1): BatchNorm2d(225, eps=1e-05, momentum=0.1, affine=True, track_running_stats=True)
      (relu): ReLU(inplace=True)
      (conv1): Conv2d(225, 11, kernel_size=(3, 3), stride=(1, 1), padding=(1, 1), bias=False)
    )
    (1): DenseBasicBlock(
      (bn1): BatchNorm2d(236, eps=1e-05, momentum=0.1, affine=True, track_running_stats=True)
      (relu): ReLU(inplace=True)
      (conv1): Conv2d(236, 12, kernel_size=(3, 3), stride=(1, 1), padding=(1, 1), bias=False)
    )
    (2): DenseBasicBlock(
      (bn1): BatchNorm2d(248, eps=1e-05, momentum=0.1, affine=True, track_running_stats=True)
      (relu): ReLU(inplace=True)
      (conv1): Conv2d(248, 12, kernel_size=(3, 3), stride=(1, 1), padding=(1, 1), bias=False)
    )
    (3): DenseBasicBlock(
      (bn1): BatchNorm2d(260, eps=1e-05, momentum=0.1, affine=True, track_running_stats=True)
      (relu): ReLU(inplace=True)
      (conv1): Conv2d(260, 12, kernel_size=(3, 3), stride=(1, 1), padding=(1, 1), bias=False)
    )
    (4): DenseBasicBlock(
      (bn1): BatchNorm2d(272, eps=1e-05, momentum=0.1, affine=True, track_running_stats=True)
      (relu): ReLU(inplace=True)
      (conv1): Conv2d(272, 12, kernel_size=(3, 3), stride=(1, 1), padding=(1, 1), bias=False)
    )
    (5): DenseBasicBlock(
      (bn1): BatchNorm2d(284, eps=1e-05, momentum=0.1, affine=True, track_running_stats=True)
      (relu): ReLU(inplace=True)
      (conv1): Conv2d(284, 12, kernel_size=(3, 3), stride=(1, 1), padding=(1, 1), bias=False)
    )
    (6): DenseBasicBlock(
      (bn1): BatchNorm2d(296, eps=1e-05, momentum=0.1, affine=True, track_running_stats=True)
      (relu): ReLU(inplace=True)
      (conv1): Conv2d(296, 11, kernel_size=(3, 3), stride=(1, 1), padding=(1, 1), bias=False)
    )
    (7): DenseBasicBlock(
      (bn1): BatchNorm2d(307, eps=1e-05, momentum=0.1, affine=True, track_running_stats=True)
      (relu): ReLU(inplace=True)
      (conv1): Conv2d(307, 12, kernel_size=(3, 3), stride=(1, 1), padding=(1, 1), bias=False)
    )
    (8): DenseBasicBlock(
      (bn1): BatchNorm2d(319, eps=1e-05, momentum=0.1, affine=True, track_running_stats=True)
      (relu): ReLU(inplace=True)
      (conv1): Conv2d(319, 12, kernel_size=(3, 3), stride=(1, 1), padding=(1, 1), bias=False)
    )
    (9): DenseBasicBlock(
      (bn1): BatchNorm2d(331, eps=1e-05, momentum=0.1, affine=True, track_running_stats=True)
      (relu): ReLU(inplace=True)
      (conv1): Conv2d(331, 12, kernel_size=(3, 3), stride=(1, 1), padding=(1, 1), bias=False)
    )
    (10): DenseBasicBlock(
      (bn1): BatchNorm2d(343, eps=1e-05, momentum=0.1, affine=True, track_running_stats=True)
      (relu): ReLU(inplace=True)
      (conv1): Conv2d(343, 12, kernel_size=(3, 3), stride=(1, 1), padding=(1, 1), bias=False)
    )
    (11): DenseBasicBlock(
      (bn1): BatchNorm2d(355, eps=1e-05, momentum=0.1, affine=True, track_running_stats=True)
      (relu): ReLU(inplace=True)
      (conv1): Conv2d(355, 12, kernel_size=(3, 3), stride=(1, 1), padding=(1, 1), bias=False)
    )
  )
  (bn): BatchNorm2d(367, eps=1e-05, momentum=0.1, affine=True, track_running_stats=True)
  (relu): ReLU(inplace=True)
  (avgpool): AvgPool2d(kernel_size=8, stride=8, padding=0)
  (fc): Linear(in_features=367, out_features=10, bias=True)
)
11/11 04:47:49 AM | Epoch[0]
11/11 04:47:49 AM | learning_rate: 0.02
11/11 04:47:51 AM |   (0/196):Loss 0.3488 Prec@1(1,5) 89.45, 100.00
11/11 04:47:57 AM |   (50/196):Loss 0.2726 Prec@1(1,5) 91.68, 99.84
11/11 04:48:03 AM |   (100/196):Loss 0.2343 Prec@1(1,5) 92.45, 99.88
11/11 04:48:09 AM |   (150/196):Loss 0.2056 Prec@1(1,5) 93.25, 99.91
11/11 04:48:17 AM |  * Acc@1 90.570 Acc@5 99.660
…
