…
 gamma=0.2, gpu='2', num_workers=4, dataset='cifar10', arch='densenet_40', save_plot=False, seed=1, lr_finetuning=0.02, epoch_finetuning=200, wd=0.002, data_dir='./data/cifar10/', print_freq=200, num_classes=10, device_ids=[2], device=device(type='cuda', index=0), name_base='')
11/08 05:51:54 PM | ----------------------------------------
11/08 05:51:54 PM | ==> Building model...
11/08 05:51:54 PM | ----------------------------------------
11/08 05:51:54 PM | ==> Loading weights into the model...
11/08 05:51:54 PM | ----------------------------------------
11/08 05:51:54 PM | DenseNet(
  (conv1): Conv2d(3, 24, kernel_size=(3, 3), stride=(1, 1), padding=(1, 1), bias=False)
  (dense1): Sequential(
    (0): DenseBasicBlock(
      (bn1): BatchNorm2d(24, eps=1e-05, momentum=0.1, affine=True, track_running_stats=True)
      (relu): ReLU(inplace=True)
      (conv1): Conv2d(24, 12, kernel_size=(3, 3), stride=(1, 1), padding=(1, 1), bias=False)
    )
    (1): DenseBasicBlock(
      (bn1): BatchNorm2d(36, eps=1e-05, momentum=0.1, affine=True, track_running_stats=True)
      (relu): ReLU(inplace=True)
      (conv1): Conv2d(36, 12, kernel_size=(3, 3), stride=(1, 1), padding=(1, 1), bias=False)
    )
    (2): DenseBasicBlock(
      (bn1): BatchNorm2d(48, eps=1e-05, momentum=0.1, affine=True, track_running_stats=True)
      (relu): ReLU(inplace=True)
      (conv1): Conv2d(48, 12, kernel_size=(3, 3), stride=(1, 1), padding=(1, 1), bias=False)
    )
    (3): DenseBasicBlock(
      (bn1): BatchNorm2d(60, eps=1e-05, momentum=0.1, affine=True, track_running_stats=True)
      (relu): ReLU(inplace=True)
      (conv1): Conv2d(60, 12, kernel_size=(3, 3), stride=(1, 1), padding=(1, 1), bias=False)
    )
    (4): DenseBasicBlock(
      (bn1): BatchNorm2d(72, eps=1e-05, momentum=0.1, affine=True, track_running_stats=True)
      (relu): ReLU(inplace=True)
      (conv1): Conv2d(72, 12, kernel_size=(3, 3), stride=(1, 1), padding=(1, 1), bias=False)
    )
    (5): DenseBasicBlock(
      (bn1): BatchNorm2d(84, eps=1e-05, momentum=0.1, affine=True, track_running_stats=True)
      (relu): ReLU(inplace=True)
      (conv1): Conv2d(84, 12, kernel_size=(3, 3), stride=(1, 1), padding=(1, 1), bias=False)
    )
    (6): DenseBasicBlock(
      (bn1): BatchNorm2d(96, eps=1e-05, momentum=0.1, affine=True, track_running_stats=True)
      (relu): ReLU(inplace=True)
      (conv1): Conv2d(96, 12, kernel_size=(3, 3), stride=(1, 1), padding=(1, 1), bias=False)
    )
    (7): DenseBasicBlock(
      (bn1): BatchNorm2d(108, eps=1e-05, momentum=0.1, affine=True, track_running_stats=True)
      (relu): ReLU(inplace=True)
      (conv1): Conv2d(108, 12, kernel_size=(3, 3), stride=(1, 1), padding=(1, 1), bias=False)
    )
    (8): DenseBasicBlock(
      (bn1): BatchNorm2d(120, eps=1e-05, momentum=0.1, affine=True, track_running_stats=True)
      (relu): ReLU(inplace=True)
      (conv1): Conv2d(120, 12, kernel_size=(3, 3), stride=(1, 1), padding=(1, 1), bias=False)
    )
    (9): DenseBasicBlock(
      (bn1): BatchNorm2d(132, eps=1e-05, momentum=0.1, affine=True, track_running_stats=True)
      (relu): ReLU(inplace=True)
      (conv1): Conv2d(132, 12, kernel_size=(3, 3), stride=(1, 1), padding=(1, 1), bias=False)
    )
    (10): DenseBasicBlock(
      (bn1): BatchNorm2d(144, eps=1e-05, momentum=0.1, affine=True, track_running_stats=True)
      (relu): ReLU(inplace=True)
      (conv1): Conv2d(144, 12, kernel_size=(3, 3), stride=(1, 1), padding=(1, 1), bias=False)
    )
    (11): DenseBasicBlock(
      (bn1): BatchNorm2d(156, eps=1e-05, momentum=0.1, affine=True, track_running_stats=True)
      (relu): ReLU(inplace=True)
      (conv1): Conv2d(156, 12, kernel_size=(3, 3), stride=(1, 1), padding=(1, 1), bias=False)
    )
  )
  (trans1): Transition(
    (bn1): BatchNorm2d(168, eps=1e-05, momentum=0.1, affine=True, track_running_stats=True)
    (relu): ReLU(inplace=True)
    (conv1): Conv2d(168, 168, kernel_size=(1, 1), stride=(1, 1), bias=False)
    (avgpool): AvgPool2d(kernel_size=2, stride=2, padding=0)
  )
  (dense2): Sequential(
    (0): DenseBasicBlock(
      (bn1): BatchNorm2d(168, eps=1e-05, momentum=0.1, affine=True, track_running_stats=True)
      (relu): ReLU(inplace=True)
      (conv1): Conv2d(168, 12, kernel_size=(3, 3), stride=(1, 1), padding=(1, 1), bias=False)
    )
    (1): DenseBasicBlock(
      (bn1): BatchNorm2d(180, eps=1e-05, momentum=0.1, affine=True, track_running_stats=True)
      (relu): ReLU(inplace=True)
      (conv1): Conv2d(180, 12, kernel_size=(3, 3), stride=(1, 1), padding=(1, 1), bias=False)
    )
    (2): DenseBasicBlock(
      (bn1): BatchNorm2d(192, eps=1e-05, momentum=0.1, affine=True, track_running_stats=True)
      (relu): ReLU(inplace=True)
      (conv1): Conv2d(192, 12, kernel_size=(3, 3), stride=(1, 1), padding=(1, 1), bias=False)
    )
    (3): DenseBasicBlock(
      (bn1): BatchNorm2d(204, eps=1e-05, momentum=0.1, affine=True, track_running_stats=True)
      (relu): ReLU(inplace=True)
      (conv1): Conv2d(204, 12, kernel_size=(3, 3), stride=(1, 1), padding=(1, 1), bias=False)
    )
    (4): DenseBasicBlock(
      (bn1): BatchNorm2d(216, eps=1e-05, momentum=0.1, affine=True, track_running_stats=True)
      (relu): ReLU(inplace=True)
      (conv1): Conv2d(216, 12, kernel_size=(3, 3), stride=(1, 1), padding=(1, 1), bias=False)
    )
    (5): DenseBasicBlock(
      (bn1): BatchNorm2d(228, eps=1e-05, momentum=0.1, affine=True, track_running_stats=True)
      (relu): ReLU(inplace=True)
      (conv1): Conv2d(228, 12, kernel_size=(3, 3), stride=(1, 1), padding=(1, 1), bias=False)
    )
    (6): DenseBasicBlock(
      (bn1): BatchNorm2d(240, eps=1e-05, momentum=0.1, affine=True, track_running_stats=True)
      (relu): ReLU(inplace=True)
      (conv1): Conv2d(240, 12, kernel_size=(3, 3), stride=(1, 1), padding=(1, 1), bias=False)
    )
    (7): DenseBasicBlock(
      (bn1): BatchNorm2d(252, eps=1e-05, momentum=0.1, affine=True, track_running_stats=True)
      (relu): ReLU(inplace=True)
      (conv1): Conv2d(252, 12, kernel_size=(3, 3), stride=(1, 1), padding=(1, 1), bias=False)
    )
    (8): DenseBasicBlock(
      (bn1): BatchNorm2d(264, eps=1e-05, momentum=0.1, affine=True, track_running_stats=True)
      (relu): ReLU(inplace=True)
      (conv1): Conv2d(264, 12, kernel_size=(3, 3), stride=(1, 1), padding=(1, 1), bias=False)
    )
    (9): DenseBasicBlock(
      (bn1): BatchNorm2d(276, eps=1e-05, momentum=0.1, affine=True, track_running_stats=True)
      (relu): ReLU(inplace=True)
      (conv1): Conv2d(276, 12, kernel_size=(3, 3), stride=(1, 1), padding=(1, 1), bias=False)
    )
    (10): DenseBasicBlock(
      (bn1): BatchNorm2d(288, eps=1e-05, momentum=0.1, affine=True, track_running_stats=True)
      (relu): ReLU(inplace=True)
      (conv1): Conv2d(288, 12, kernel_size=(3, 3), stride=(1, 1), padding=(1, 1), bias=False)
    )
    (11): DenseBasicBlock(
      (bn1): BatchNorm2d(300, eps=1e-05, momentum=0.1, affine=True, track_running_stats=True)
      (relu): ReLU(inplace=True)
      (conv1): Conv2d(300, 12, kernel_size=(3, 3), stride=(1, 1), padding=(1, 1), bias=False)
    )
  )
  (trans2): Transition(
    (bn1): BatchNorm2d(312, eps=1e-05, momentum=0.1, affine=True, track_running_stats=True)
    (relu): ReLU(inplace=True)
    (conv1): Conv2d(312, 312, kernel_size=(1, 1), stride=(1, 1), bias=False)
    (avgpool): AvgPool2d(kernel_size=2, stride=2, padding=0)
  )
  (dense3): Sequential(
    (0): DenseBasicBlock(
      (bn1): BatchNorm2d(312, eps=1e-05, momentum=0.1, affine=True, track_running_stats=True)
      (relu): ReLU(inplace=True)
      (conv1): Conv2d(312, 12, kernel_size=(3, 3), stride=(1, 1), padding=(1, 1), bias=False)
    )
    (1): DenseBasicBlock(
      (bn1): BatchNorm2d(324, eps=1e-05, momentum=0.1, affine=True, track_running_stats=True)
      (relu): ReLU(inplace=True)
      (conv1): Conv2d(324, 12, kernel_size=(3, 3), stride=(1, 1), padding=(1, 1), bias=False)
    )
    (2): DenseBasicBlock(
      (bn1): BatchNorm2d(336, eps=1e-05, momentum=0.1, affine=True, track_running_stats=True)
      (relu): ReLU(inplace=True)
      (conv1): Conv2d(336, 12, kernel_size=(3, 3), stride=(1, 1), padding=(1, 1), bias=False)
    )
    (3): DenseBasicBlock(
      (bn1): BatchNorm2d(348, eps=1e-05, momentum=0.1, affine=True, track_running_stats=True)
      (relu): ReLU(inplace=True)
      (conv1): Conv2d(348, 12, kernel_size=(3, 3), stride=(1, 1), padding=(1, 1), bias=False)
    )
    (4): DenseBasicBlock(
      (bn1): BatchNorm2d(360, eps=1e-05, momentum=0.1, affine=True, track_running_stats=True)
      (relu): ReLU(inplace=True)
      (conv1): Conv2d(360, 12, kernel_size=(3, 3), stride=(1, 1), padding=(1, 1), bias=False)
    )
    (5): DenseBasicBlock(
      (bn1): BatchNorm2d(372, eps=1e-05, momentum=0.1, affine=True, track_running_stats=True)
      (relu): ReLU(inplace=True)
      (conv1): Conv2d(372, 12, kernel_size=(3, 3), stride=(1, 1), padding=(1, 1), bias=False)
    )
    (6): DenseBasicBlock(
      (bn1): BatchNorm2d(384, eps=1e-05, momentum=0.1, affine=True, track_running_stats=True)
      (relu): ReLU(inplace=True)
      (conv1): Conv2d(384, 12, kernel_size=(3, 3), stride=(1, 1), padding=(1, 1), bias=False)
    )
    (7): DenseBasicBlock(
      (bn1): BatchNorm2d(396, eps=1e-05, momentum=0.1, affine=True, track_running_stats=True)
      (relu): ReLU(inplace=True)
      (conv1): Conv2d(396, 12, kernel_size=(3, 3), stride=(1, 1), padding=(1, 1), bias=False)
    )
    (8): DenseBasicBlock(
      (bn1): BatchNorm2d(408, eps=1e-05, momentum=0.1, affine=True, track_running_stats=True)
      (relu): ReLU(inplace=True)
      (conv1): Conv2d(408, 12, kernel_size=(3, 3), stride=(1, 1), padding=(1, 1), bias=False)
    )
    (9): DenseBasicBlock(
      (bn1): BatchNorm2d(420, eps=1e-05, momentum=0.1, affine=True, track_running_stats=True)
      (relu): ReLU(inplace=True)
      (conv1): Conv2d(420, 12, kernel_size=(3, 3), stride=(1, 1), padding=(1, 1), bias=False)
    )
    (10): DenseBasicBlock(
      (bn1): BatchNorm2d(432, eps=1e-05, momentum=0.1, affine=True, track_running_stats=True)
      (relu): ReLU(inplace=True)
      (conv1): Conv2d(432, 12, kernel_size=(3, 3), stride=(1, 1), padding=(1, 1), bias=False)
    )
    (11): DenseBasicBlock(
      (bn1): BatchNorm2d(444, eps=1e-05, momentum=0.1, affine=True, track_running_stats=True)
      (relu): ReLU(inplace=True)
      (conv1): Conv2d(444, 12, kernel_size=(3, 3), stride=(1, 1), padding=(1, 1), bias=False)
    )
  )
  (bn): BatchNorm2d(456, eps=1e-05, momentum=0.1, affine=True, track_running_stats=True)
  (relu): ReLU(inplace=True)
  (avgpool): AvgPool2d(kernel_size=8, stride=8, padding=0)
  (fc): Linear(in_features=456, out_features=10, bias=True)
)
11/08 05:51:57 PM | Save modules info...
11/08 05:51:57 PM | FLOPS pruning ratio is 0.55
11/08 05:51:57 PM | Pruning with information flow
11/08 05:51:57 PM | -----
11/08 05:51:57 PM | module: Conv2d(3, 24, kernel_size=(3, 3), stride=(1, 1), padding=(1, 1), bias=False)
11/08 05:51:57 PM | cin: None
11/08 05:51:57 PM | cout: [0]
11/08 05:51:57 PM | inactive
…
11/08 06:06:47 PM | Testing threshold 0.6501476168632365
11/08 06:06:47 PM | Distance to target: 137,880
11/08 06:06:47 PM | Testing threshold 0.6501476168632436
11/08 06:06:47 PM | Distance to target: 137,880
11/08 06:06:47 PM | Testing threshold 0.6501476168632472
11/08 06:06:48 PM | Distance to target: 137,880
11/08 06:06:48 PM | Testing threshold 0.650147616863249
11/08 06:06:48 PM | Distance to target: 137,880
11/08 06:06:48 PM | Testing threshold 0.6501476168632498
11/08 06:06:48 PM | Distance to target: 137,880
11/08 06:06:53 PM | attribution_score[0:12]: 
[ … 11/08 06:06:53 PM | DenseNet(
  (conv1): Conv2d(3, 18, kernel_size=(3, 3), stride=(1, 1), padding=(1, 1), bias=False)
  (dense1): Sequential(
    (0): DenseBasicBlock(
      (bn1): BatchNorm2d(18, eps=1e-05, momentum=0.1, affine=True, track_running_stats=True)
      (relu): ReLU(inplace=True)
      (conv1): Conv2d(18, 10, kernel_size=(3, 3), stride=(1, 1), padding=(1, 1), bias=False)
    )
    (1): DenseBasicBlock(
      (bn1): BatchNorm2d(28, eps=1e-05, momentum=0.1, affine=True, track_running_stats=True)
      (relu): ReLU(inplace=True)
      (conv1): Conv2d(28, 6, kernel_size=(3, 3), stride=(1, 1), padding=(1, 1), bias=False)
    )
    (2): DenseBasicBlock(
      (bn1): BatchNorm2d(34, eps=1e-05, momentum=0.1, affine=True, track_running_stats=True)
      (relu): ReLU(inplace=True)
      (conv1): Conv2d(34, 11, kernel_size=(3, 3), stride=(1, 1), padding=(1, 1), bias=False)
    )
    (3): DenseBasicBlock(
      (bn1): BatchNorm2d(45, eps=1e-05, momentum=0.1, affine=True, track_running_stats=True)
      (relu): ReLU(inplace=True)
      (conv1): Conv2d(45, 9, kernel_size=(3, 3), stride=(1, 1), padding=(1, 1), bias=False)
    )
    (4): DenseBasicBlock(
      (bn1): BatchNorm2d(54, eps=1e-05, momentum=0.1, affine=True, track_running_stats=True)
      (relu): ReLU(inplace=True)
      (conv1): Conv2d(54, 9, kernel_size=(3, 3), stride=(1, 1), padding=(1, 1), bias=False)
    )
    (5): DenseBasicBlock(
      (bn1): BatchNorm2d(63, eps=1e-05, momentum=0.1, affine=True, track_running_stats=True)
      (relu): ReLU(inplace=True)
      (conv1): Conv2d(63, 9, kernel_size=(3, 3), stride=(1, 1), padding=(1, 1), bias=False)
    )
    (6): DenseBasicBlock(
      (bn1): BatchNorm2d(72, eps=1e-05, momentum=0.1, affine=True, track_running_stats=True)
      (relu): ReLU(inplace=True)
      (conv1): Conv2d(72, 9, kernel_size=(3, 3), stride=(1, 1), padding=(1, 1), bias=False)
    )
    (7): DenseBasicBlock(
      (bn1): BatchNorm2d(81, eps=1e-05, momentum=0.1, affine=True, track_running_stats=True)
      (relu): ReLU(inplace=True)
      (conv1): Conv2d(81, 8, kernel_size=(3, 3), stride=(1, 1), padding=(1, 1), bias=False)
    )
    (8): DenseBasicBlock(
      (bn1): BatchNorm2d(89, eps=1e-05, momentum=0.1, affine=True, track_running_stats=True)
      (relu): ReLU(inplace=True)
      (conv1): Conv2d(89, 6, kernel_size=(3, 3), stride=(1, 1), padding=(1, 1), bias=False)
    )
    (9): DenseBasicBlock(
      (bn1): BatchNorm2d(95, eps=1e-05, momentum=0.1, affine=True, track_running_stats=True)
      (relu): ReLU(inplace=True)
      (conv1): Conv2d(95, 2, kernel_size=(3, 3), stride=(1, 1), padding=(1, 1), bias=False)
    )
    (10): DenseBasicBlock(
      (bn1): BatchNorm2d(97, eps=1e-05, momentum=0.1, affine=True, track_running_stats=True)
      (relu): ReLU(inplace=True)
      (conv1): Conv2d(97, 4, kernel_size=(3, 3), stride=(1, 1), padding=(1, 1), bias=False)
    )
    (11): DenseBasicBlock(
      (bn1): BatchNorm2d(101, eps=1e-05, momentum=0.1, affine=True, track_running_stats=True)
      (relu): ReLU(inplace=True)
      (conv1): Conv2d(101, 4, kernel_size=(3, 3), stride=(1, 1), padding=(1, 1), bias=False)
    )
  )
  (trans1): Transition(
    (bn1): BatchNorm2d(105, eps=1e-05, momentum=0.1, affine=True, track_running_stats=True)
    (relu): ReLU(inplace=True)
    (conv1): Conv2d(105, 91, kernel_size=(1, 1), stride=(1, 1), bias=False)
    (avgpool): AvgPool2d(kernel_size=2, stride=2, padding=0)
  )
  (dense2): Sequential(
    (0): DenseBasicBlock(
      (bn1): BatchNorm2d(91, eps=1e-05, momentum=0.1, affine=True, track_running_stats=True)
      (relu): ReLU(inplace=True)
      (conv1): Conv2d(91, 12, kernel_size=(3, 3), stride=(1, 1), padding=(1, 1), bias=False)
    )
    (1): DenseBasicBlock(
      (bn1): BatchNorm2d(103, eps=1e-05, momentum=0.1, affine=True, track_running_stats=True)
      (relu): ReLU(inplace=True)
      (conv1): Conv2d(103, 11, kernel_size=(3, 3), stride=(1, 1), padding=(1, 1), bias=False)
    )
    (2): DenseBasicBlock(
      (bn1): BatchNorm2d(114, eps=1e-05, momentum=0.1, affine=True, track_running_stats=True)
      (relu): ReLU(inplace=True)
      (conv1): Conv2d(114, 10, kernel_size=(3, 3), stride=(1, 1), padding=(1, 1), bias=False)
    )
    (3): DenseBasicBlock(
      (bn1): BatchNorm2d(124, eps=1e-05, momentum=0.1, affine=True, track_running_stats=True)
      (relu): ReLU(inplace=True)
      (conv1): Conv2d(124, 9, kernel_size=(3, 3), stride=(1, 1), padding=(1, 1), bias=False)
    )
    (4): DenseBasicBlock(
      (bn1): BatchNorm2d(133, eps=1e-05, momentum=0.1, affine=True, track_running_stats=True)
      (relu): ReLU(inplace=True)
      (conv1): Conv2d(133, 7, kernel_size=(3, 3), stride=(1, 1), padding=(1, 1), bias=False)
    )
    (5): DenseBasicBlock(
      (bn1): BatchNorm2d(140, eps=1e-05, momentum=0.1, affine=True, track_running_stats=True)
      (relu): ReLU(inplace=True)
      (conv1): Conv2d(140, 9, kernel_size=(3, 3), stride=(1, 1), padding=(1, 1), bias=False)
    )
    (6): DenseBasicBlock(
      (bn1): BatchNorm2d(149, eps=1e-05, momentum=0.1, affine=True, track_running_stats=True)
      (relu): ReLU(inplace=True)
      (conv1): Conv2d(149, 9, kernel_size=(3, 3), stride=(1, 1), padding=(1, 1), bias=False)
    )
    (7): DenseBasicBlock(
      (bn1): BatchNorm2d(158, eps=1e-05, momentum=0.1, affine=True, track_running_stats=True)
      (relu): ReLU(inplace=True)
      (conv1): Conv2d(158, 9, kernel_size=(3, 3), stride=(1, 1), padding=(1, 1), bias=False)
    )
    (8): DenseBasicBlock(
      (bn1): BatchNorm2d(167, eps=1e-05, momentum=0.1, affine=True, track_running_stats=True)
      (relu): ReLU(inplace=True)
      (conv1): Conv2d(167, 8, kernel_size=(3, 3), stride=(1, 1), padding=(1, 1), bias=False)
    )
    (9): DenseBasicBlock(
      (bn1): BatchNorm2d(175, eps=1e-05, momentum=0.1, affine=True, track_running_stats=True)
      (relu): ReLU(inplace=True)
      (conv1): Conv2d(175, 8, kernel_size=(3, 3), stride=(1, 1), padding=(1, 1), bias=False)
    )
    (10): DenseBasicBlock(
      (bn1): BatchNorm2d(183, eps=1e-05, momentum=0.1, affine=True, track_running_stats=True)
      (relu): ReLU(inplace=True)
      (conv1): Conv2d(183, 6, kernel_size=(3, 3), stride=(1, 1), padding=(1, 1), bias=False)
    )
    (11): DenseBasicBlock(
      (bn1): BatchNorm2d(189, eps=1e-05, momentum=0.1, affine=True, track_running_stats=True)
      (relu): ReLU(inplace=True)
      (conv1): Conv2d(189, 7, kernel_size=(3, 3), stride=(1, 1), padding=(1, 1), bias=False)
    )
  )
  (trans2): Transition(
    (bn1): BatchNorm2d(196, eps=1e-05, momentum=0.1, affine=True, track_running_stats=True)
    (relu): ReLU(inplace=True)
    (conv1): Conv2d(196, 225, kernel_size=(1, 1), stride=(1, 1), bias=False)
    (avgpool): AvgPool2d(kernel_size=2, stride=2, padding=0)
  )
  (dense3): Sequential(
    (0): DenseBasicBlock(
      (bn1): BatchNorm2d(225, eps=1e-05, momentum=0.1, affine=True, track_running_stats=True)
      (relu): ReLU(inplace=True)
      (conv1): Conv2d(225, 11, kernel_size=(3, 3), stride=(1, 1), padding=(1, 1), bias=False)
    )
    (1): DenseBasicBlock(
      (bn1): BatchNorm2d(236, eps=1e-05, momentum=0.1, affine=True, track_running_stats=True)
      (relu): ReLU(inplace=True)
      (conv1): Conv2d(236, 12, kernel_size=(3, 3), stride=(1, 1), padding=(1, 1), bias=False)
    )
    (2): DenseBasicBlock(
      (bn1): BatchNorm2d(248, eps=1e-05, momentum=0.1, affine=True, track_running_stats=True)
      (relu): ReLU(inplace=True)
      (conv1): Conv2d(248, 12, kernel_size=(3, 3), stride=(1, 1), padding=(1, 1), bias=False)
    )
    (3): DenseBasicBlock(
      (bn1): BatchNorm2d(260, eps=1e-05, momentum=0.1, affine=True, track_running_stats=True)
      (relu): ReLU(inplace=True)
      (conv1): Conv2d(260, 12, kernel_size=(3, 3), stride=(1, 1), padding=(1, 1), bias=False)
    )
    (4): DenseBasicBlock(
      (bn1): BatchNorm2d(272, eps=1e-05, momentum=0.1, affine=True, track_running_stats=True)
      (relu): ReLU(inplace=True)
      (conv1): Conv2d(272, 12, kernel_size=(3, 3), stride=(1, 1), padding=(1, 1), bias=False)
    )
    (5): DenseBasicBlock(
      (bn1): BatchNorm2d(284, eps=1e-05, momentum=0.1, affine=True, track_running_stats=True)
      (relu): ReLU(inplace=True)
      (conv1): Conv2d(284, 12, kernel_size=(3, 3), stride=(1, 1), padding=(1, 1), bias=False)
    )
    (6): DenseBasicBlock(
      (bn1): BatchNorm2d(296, eps=1e-05, momentum=0.1, affine=True, track_running_stats=True)
      (relu): ReLU(inplace=True)
      (conv1): Conv2d(296, 11, kernel_size=(3, 3), stride=(1, 1), padding=(1, 1), bias=False)
    )
    (7): DenseBasicBlock(
      (bn1): BatchNorm2d(307, eps=1e-05, momentum=0.1, affine=True, track_running_stats=True)
      (relu): ReLU(inplace=True)
      (conv1): Conv2d(307, 12, kernel_size=(3, 3), stride=(1, 1), padding=(1, 1), bias=False)
    )
    (8): DenseBasicBlock(
      (bn1): BatchNorm2d(319, eps=1e-05, momentum=0.1, affine=True, track_running_stats=True)
      (relu): ReLU(inplace=True)
      (conv1): Conv2d(319, 12, kernel_size=(3, 3), stride=(1, 1), padding=(1, 1), bias=False)
    )
    (9): DenseBasicBlock(
      (bn1): BatchNorm2d(331, eps=1e-05, momentum=0.1, affine=True, track_running_stats=True)
      (relu): ReLU(inplace=True)
      (conv1): Conv2d(331, 12, kernel_size=(3, 3), stride=(1, 1), padding=(1, 1), bias=False)
    )
    (10): DenseBasicBlock(
      (bn1): BatchNorm2d(343, eps=1e-05, momentum=0.1, affine=True, track_running_stats=True)
      (relu): ReLU(inplace=True)
      (conv1): Conv2d(343, 12, kernel_size=(3, 3), stride=(1, 1), padding=(1, 1), bias=False)
    )
    (11): DenseBasicBlock(
      (bn1): BatchNorm2d(355, eps=1e-05, momentum=0.1, affine=True, track_running_stats=True)
      (relu): ReLU(inplace=True)
      (conv1): Conv2d(355, 12, kernel_size=(3, 3), stride=(1, 1), padding=(1, 1), bias=False)
    )
  )
  (bn): BatchNorm2d(367, eps=1e-05, momentum=0.1, affine=True, track_running_stats=True)
  (relu): ReLU(inplace=True)
  (avgpool): AvgPool2d(kernel_size=8, stride=8, padding=0)
  (fc): Linear(in_features=367, out_features=10, bias=True)
)
11/08 06:06:55 PM | ----------------------------------------
11/08 06:06:55 PM | Performances input model:
11/08 06:06:55 PM |  - flops: 287,773,080
11/08 06:06:55 PM |  - params: 1,059,298
11/08 06:06:55 PM |  - accuracy: 94.80999755859375
11/08 06:06:55 PM | ----------------------------------------
11/08 06:06:55 PM | Performances pseudo-pruned model:
…
