…
_workers=4, dataset='cifar10', arch='googlenet', save_plot=False, seed=0, lr_finetuning=0.02, epoch_finetuning=200, wd=0.002, data_dir='./data/cifar10/', print_freq=50, num_classes=10, device_ids=[0], device=device(type='cuda', index=0), name_base='')
11/04 07:58:29 PM | ----------------------------------------
11/04 07:58:29 PM | ==> Building model...
11/04 07:58:29 PM | ----------------------------------------
11/04 07:58:29 PM | ==> Loading weights into the model...
11/04 07:58:30 PM | ----------------------------------------
11/04 07:58:30 PM | GoogLeNet(
  (pre_layers): Sequential(
    (0): Conv2d(3, 110, kernel_size=(3, 3), stride=(1, 1), padding=(1, 1))
    (1): BatchNorm2d(110, eps=1e-05, momentum=0.1, affine=True, track_running_stats=True)
    (2): ReLU(inplace=True)
  )
  (inception_a3): Inception(
    (branch1x1): Sequential(
      (0): Conv2d(110, 51, kernel_size=(1, 1), stride=(1, 1))
      (1): BatchNorm2d(51, eps=1e-05, momentum=0.1, affine=True, track_running_stats=True)
      (2): ReLU(inplace=True)
    )
    (branch3x3): Sequential(
      (0): Conv2d(110, 30, kernel_size=(1, 1), stride=(1, 1))
      (1): BatchNorm2d(30, eps=1e-05, momentum=0.1, affine=True, track_running_stats=True)
      (2): ReLU(inplace=True)
      (3): Conv2d(30, 75, kernel_size=(3, 3), stride=(1, 1), padding=(1, 1))
      (4): BatchNorm2d(75, eps=1e-05, momentum=0.1, affine=True, track_running_stats=True)
      (5): ReLU(inplace=True)
    )
    (branch5x5): Sequential(
      (0): Conv2d(110, 10, kernel_size=(1, 1), stride=(1, 1))
      (1): BatchNorm2d(10, eps=1e-05, momentum=0.1, affine=True, track_running_stats=True)
      (2): ReLU(inplace=True)
      (3): Conv2d(10, 19, kernel_size=(3, 3), stride=(1, 1), padding=(1, 1))
      (4): BatchNorm2d(19, eps=1e-05, momentum=0.1, affine=True, track_running_stats=True)
      (5): ReLU(inplace=True)
      (6): Conv2d(19, 27, kernel_size=(3, 3), stride=(1, 1), padding=(1, 1))
      (7): BatchNorm2d(27, eps=1e-05, momentum=0.1, affine=True, track_running_stats=True)
      (8): ReLU(inplace=True)
    )
    (branch_pool): Sequential(
      (0): MaxPool2d(kernel_size=3, stride=1, padding=1, dilation=1, ceil_mode=False)
      (1): Conv2d(110, 6, kernel_size=(1, 1), stride=(1, 1))
      (2): BatchNorm2d(6, eps=1e-05, momentum=0.1, affine=True, track_running_stats=True)
      (3): ReLU(inplace=True)
    )
  )
  (inception_b3): Inception(
    (branch1x1): Sequential(
      (0): Conv2d(159, 111, kernel_size=(1, 1), stride=(1, 1))
      (1): BatchNorm2d(111, eps=1e-05, momentum=0.1, affine=True, track_running_stats=True)
      (2): ReLU(inplace=True)
    )
    (branch3x3): Sequential(
      (0): Conv2d(159, 32, kernel_size=(1, 1), stride=(1, 1))
      (1): BatchNorm2d(32, eps=1e-05, momentum=0.1, affine=True, track_running_stats=True)
      (2): ReLU(inplace=True)
      (3): Conv2d(32, 140, kernel_size=(3, 3), stride=(1, 1), padding=(1, 1))
      (4): BatchNorm2d(140, eps=1e-05, momentum=0.1, affine=True, track_running_stats=True)
      (5): ReLU(inplace=True)
    )
    (branch5x5): Sequential(
      (0): Conv2d(159, 20, kernel_size=(1, 1), stride=(1, 1))
      (1): BatchNorm2d(20, eps=1e-05, momentum=0.1, affine=True, track_running_stats=True)
      (2): ReLU(inplace=True)
      (3): Conv2d(20, 37, kernel_size=(3, 3), stride=(1, 1), padding=(1, 1))
      (4): BatchNorm2d(37, eps=1e-05, momentum=0.1, affine=True, track_running_stats=True)
      (5): ReLU(inplace=True)
      (6): Conv2d(37, 81, kernel_size=(3, 3), stride=(1, 1), padding=(1, 1))
      (7): BatchNorm2d(81, eps=1e-05, momentum=0.1, affine=True, track_running_stats=True)
      (8): ReLU(inplace=True)
    )
    (branch_pool): Sequential(
      (0): MaxPool2d(kernel_size=3, stride=1, padding=1, dilation=1, ceil_mode=False)
      (1): Conv2d(159, 49, kernel_size=(1, 1), stride=(1, 1))
      (2): BatchNorm2d(49, eps=1e-05, momentum=0.1, affine=True, track_running_stats=True)
      (3): ReLU(inplace=True)
    )
  )
  (maxpool1): MaxPool2d(kernel_size=3, stride=2, padding=1, dilation=1, ceil_mode=False)
  (maxpool2): MaxPool2d(kernel_size=3, stride=2, padding=1, dilation=1, ceil_mode=False)
  (inception_a4): Inception(
    (branch1x1): Sequential(
      (0): Conv2d(381, 159, kernel_size=(1, 1), stride=(1, 1))
      (1): BatchNorm2d(159, eps=1e-05, momentum=0.1, affine=True, track_running_stats=True)
      (2): ReLU(inplace=True)
    )
    (branch3x3): Sequential(
      (0): Conv2d(381, 57, kernel_size=(1, 1), stride=(1, 1))
      (1): BatchNorm2d(57, eps=1e-05, momentum=0.1, affine=True, track_running_stats=True)
      (2): ReLU(inplace=True)
      (3): Conv2d(57, 136, kernel_size=(3, 3), stride=(1, 1), padding=(1, 1))
      (4): BatchNorm2d(136, eps=1e-05, momentum=0.1, affine=True, track_running_stats=True)
      (5): ReLU(inplace=True)
    )
    (branch5x5): Sequential(
      (0): Conv2d(381, 11, kernel_size=(1, 1), stride=(1, 1))
      (1): BatchNorm2d(11, eps=1e-05, momentum=0.1, affine=True, track_running_stats=True)
      (2): ReLU(inplace=True)
      (3): Conv2d(11, 37, kernel_size=(3, 3), stride=(1, 1), padding=(1, 1))
      (4): BatchNorm2d(37, eps=1e-05, momentum=0.1, affine=True, track_running_stats=True)
      (5): ReLU(inplace=True)
      (6): Conv2d(37, 44, kernel_size=(3, 3), stride=(1, 1), padding=(1, 1))
      (7): BatchNorm2d(44, eps=1e-05, momentum=0.1, affine=True, track_running_stats=True)
      (8): ReLU(inplace=True)
    )
    (branch_pool): Sequential(
      (0): MaxPool2d(kernel_size=3, stride=1, padding=1, dilation=1, ceil_mode=False)
      (1): Conv2d(381, 58, kernel_size=(1, 1), stride=(1, 1))
      (2): BatchNorm2d(58, eps=1e-05, momentum=0.1, affine=True, track_running_stats=True)
      (3): ReLU(inplace=True)
    )
  )
  (inception_b4): Inception(
    (branch1x1): Sequential(
      (0): Conv2d(397, 154, kernel_size=(1, 1), stride=(1, 1))
      (1): BatchNorm2d(154, eps=1e-05, momentum=0.1, affine=True, track_running_stats=True)
      (2): ReLU(inplace=True)
    )
    (branch3x3): Sequential(
      (0): Conv2d(397, 56, kernel_size=(1, 1), stride=(1, 1))
      (1): BatchNorm2d(56, eps=1e-05, momentum=0.1, affine=True, track_running_stats=True)
      (2): ReLU(inplace=True)
      (3): Conv2d(56, 116, kernel_size=(3, 3), stride=(1, 1), padding=(1, 1))
      (4): BatchNorm2d(116, eps=1e-05, momentum=0.1, affine=True, track_running_stats=True)
      (5): ReLU(inplace=True)
    )
    (branch5x5): Sequential(
      (0): Conv2d(397, 21, kernel_size=(1, 1), stride=(1, 1))
      (1): BatchNorm2d(21, eps=1e-05, momentum=0.1, affine=True, track_running_stats=True)
      (2): ReLU(inplace=True)
      (3): Conv2d(21, 44, kernel_size=(3, 3), stride=(1, 1), padding=(1, 1))
      (4): BatchNorm2d(44, eps=1e-05, momentum=0.1, affine=True, track_running_stats=True)
      (5): ReLU(inplace=True)
      (6): Conv2d(44, 51, kernel_size=(3, 3), stride=(1, 1), padding=(1, 1))
      (7): BatchNorm2d(51, eps=1e-05, momentum=0.1, affine=True, track_running_stats=True)
      (8): ReLU(inplace=True)
    )
    (branch_pool): Sequential(
      (0): MaxPool2d(kernel_size=3, stride=1, padding=1, dilation=1, ceil_mode=False)
      (1): Conv2d(397, 60, kernel_size=(1, 1), stride=(1, 1))
      (2): BatchNorm2d(60, eps=1e-05, momentum=0.1, affine=True, track_running_stats=True)
      (3): ReLU(inplace=True)
    )
  )
  (inception_c4): Inception(
    (branch1x1): Sequential(
      (0): Conv2d(381, 117, kernel_size=(1, 1), stride=(1, 1))
      (1): BatchNorm2d(117, eps=1e-05, momentum=0.1, affine=True, track_running_stats=True)
      (2): ReLU(inplace=True)
    )
    (branch3x3): Sequential(
      (0): Conv2d(381, 53, kernel_size=(1, 1), stride=(1, 1))
      (1): BatchNorm2d(53, eps=1e-05, momentum=0.1, affine=True, track_running_stats=True)
      (2): ReLU(inplace=True)
      (3): Conv2d(53, 118, kernel_size=(3, 3), stride=(1, 1), padding=(1, 1))
      (4): BatchNorm2d(118, eps=1e-05, momentum=0.1, affine=True, track_running_stats=True)
      (5): ReLU(inplace=True)
    )
    (branch5x5): Sequential(
      (0): Conv2d(381, 20, kernel_size=(1, 1), stride=(1, 1))
      (1): BatchNorm2d(20, eps=1e-05, momentum=0.1, affine=True, track_running_stats=True)
      (2): ReLU(inplace=True)
      (3): Conv2d(20, 44, kernel_size=(3, 3), stride=(1, 1), padding=(1, 1))
      (4): BatchNorm2d(44, eps=1e-05, momentum=0.1, affine=True, track_running_stats=True)
      (5): ReLU(inplace=True)
      (6): Conv2d(44, 50, kernel_size=(3, 3), stride=(1, 1), padding=(1, 1))
      (7): BatchNorm2d(50, eps=1e-05, momentum=0.1, affine=True, track_running_stats=True)
      (8): ReLU(inplace=True)
    )
    (branch_pool): Sequential(
      (0): MaxPool2d(kernel_size=3, stride=1, padding=1, dilation=1, ceil_mode=False)
      (1): Conv2d(381, 58, kernel_size=(1, 1), stride=(1, 1))
      (2): BatchNorm2d(58, eps=1e-05, momentum=0.1, affine=True, track_running_stats=True)
      (3): ReLU(inplace=True)
    )
  )
  (inception_d4): Inception(
    (branch1x1): Sequential(
      (0): Conv2d(343, 106, kernel_size=(1, 1), stride=(1, 1))
      (1): BatchNorm2d(106, eps=1e-05, momentum=0.1, affine=True, track_running_stats=True)
      (2): ReLU(inplace=True)
    )
    (branch3x3): Sequential(
      (0): Conv2d(343, 67, kernel_size=(1, 1), stride=(1, 1))
      (1): BatchNorm2d(67, eps=1e-05, momentum=0.1, affine=True, track_running_stats=True)
      (2): ReLU(inplace=True)
      (3): Conv2d(67, 109, kernel_size=(3, 3), stride=(1, 1), padding=(1, 1))
      (4): BatchNorm2d(109, eps=1e-05, momentum=0.1, affine=True, track_running_stats=True)
      (5): ReLU(inplace=True)
    )
    (branch5x5): Sequential(
      (0): Conv2d(343, 21, kernel_size=(1, 1), stride=(1, 1))
      (1): BatchNorm2d(21, eps=1e-05, momentum=0.1, affine=True, track_running_stats=True)
      (2): ReLU(inplace=True)
      (3): Conv2d(21, 41, kernel_size=(3, 3), stride=(1, 1), padding=(1, 1))
      (4): BatchNorm2d(41, eps=1e-05, momentum=0.1, affine=True, track_running_stats=True)
      (5): ReLU(inplace=True)
      (6): Conv2d(41, 51, kernel_size=(3, 3), stride=(1, 1), padding=(1, 1))
      (7): BatchNorm2d(51, eps=1e-05, momentum=0.1, affine=True, track_running_stats=True)
      (8): ReLU(inplace=True)
    )
    (branch_pool): Sequential(
      (0): MaxPool2d(kernel_size=3, stride=1, padding=1, dilation=1, ceil_mode=False)
      (1): Conv2d(343, 63, kernel_size=(1, 1), stride=(1, 1))
      (2): BatchNorm2d(63, eps=1e-05, momentum=0.1, affine=True, track_running_stats=True)
      (3): ReLU(inplace=True)
    )
  )
  (inception_e4): Inception(
    (branch1x1): Sequential(
      (0): Conv2d(329, 236, kernel_size=(1, 1), stride=(1, 1))
      (1): BatchNorm2d(236, eps=1e-05, momentum=0.1, affine=True, track_running_stats=True)
      (2): ReLU(inplace=True)
    )
    (branch3x3): Sequential(
      (0): Conv2d(329, 46, kernel_size=(1, 1), stride=(1, 1))
      (1): BatchNorm2d(46, eps=1e-05, momentum=0.1, affine=True, track_running_stats=True)
      (2): ReLU(inplace=True)
      (3): Conv2d(46, 233, kernel_size=(3, 3), stride=(1, 1), padding=(1, 1))
      (4): BatchNorm2d(233, eps=1e-05, momentum=0.1, affine=True, track_running_stats=True)
      (5): ReLU(inplace=True)
    )
    (branch5x5): Sequential(
      (0): Conv2d(329, 22, kernel_size=(1, 1), stride=(1, 1))
      (1): BatchNorm2d(22, eps=1e-05, momentum=0.1, affine=True, track_running_stats=True)
      (2): ReLU(inplace=True)
      (3): Conv2d(22, 37, kernel_size=(3, 3), stride=(1, 1), padding=(1, 1))
      (4): BatchNorm2d(37, eps=1e-05, momentum=0.1, affine=True, track_running_stats=True)
      (5): ReLU(inplace=True)
      (6): Conv2d(37, 80, kernel_size=(3, 3), stride=(1, 1), padding=(1, 1))
      (7): BatchNorm2d(80, eps=1e-05, momentum=0.1, affine=True, track_running_stats=True)
      (8): ReLU(inplace=True)
    )
    (branch_pool): Sequential(
      (0): MaxPool2d(kernel_size=3, stride=1, padding=1, dilation=1, ceil_mode=False)
      (1): Conv2d(329, 122, kernel_size=(1, 1), stride=(1, 1))
      (2): BatchNorm2d(122, eps=1e-05, momentum=0.1, affine=True, track_running_stats=True)
      (3): ReLU(inplace=True)
    )
  )
  (inception_a5): Inception(
    (branch1x1): Sequential(
      (0): Conv2d(671, 29, kernel_size=(1, 1), stride=(1, 1))
      (1): BatchNorm2d(29, eps=1e-05, momentum=0.1, affine=True, track_running_stats=True)
      (2): ReLU(inplace=True)
    )
    (branch3x3): Sequential(
      (0): Conv2d(671, 67, kernel_size=(1, 1), stride=(1, 1))
      (1): BatchNorm2d(67, eps=1e-05, momentum=0.1, affine=True, track_running_stats=True)
      (2): ReLU(inplace=True)
      (3): Conv2d(67, 93, kernel_size=(3, 3), stride=(1, 1), padding=(1, 1))
      (4): BatchNorm2d(93, eps=1e-05, momentum=0.1, affine=True, track_running_stats=True)
      (5): ReLU(inplace=True)
    )
    (branch5x5): Sequential(
      (0): Conv2d(671, 29, kernel_size=(1, 1), stride=(1, 1))
      (1): BatchNorm2d(29, eps=1e-05, momentum=0.1, affine=True, track_running_stats=True)
      (2): ReLU(inplace=True)
      (3): Conv2d(29, 72, kernel_size=(3, 3), stride=(1, 1), padding=(1, 1))
      (4): BatchNorm2d(72, eps=1e-05, momentum=0.1, affine=True, track_running_stats=True)
      (5): ReLU(inplace=True)
      (6): Conv2d(72, 66, kernel_size=(3, 3), stride=(1, 1), padding=(1, 1))
      (7): BatchNorm2d(66, eps=1e-05, momentum=0.1, affine=True, track_running_stats=True)
      (8): ReLU(inplace=True)
    )
    (branch_pool): Sequential(
      (0): MaxPool2d(kernel_size=3, stride=1, padding=1, dilation=1, ceil_mode=False)
      (1): Conv2d(671, 121, kernel_size=(1, 1), stride=(1, 1))
      (2): BatchNorm2d(121, eps=1e-05, momentum=0.1, affine=True, track_running_stats=True)
      (3): ReLU(inplace=True)
    )
  )
  (inception_b5): Inception(
    (branch1x1): Sequential(
      (0): Conv2d(309, 151, kernel_size=(1, 1), stride=(1, 1))
      (1): BatchNorm2d(151, eps=1e-05, momentum=0.1, affine=True, track_running_stats=True)
      (2): ReLU(inplace=True)
    )
    (branch3x3): Sequential(
      (0): Conv2d(309, 48, kernel_size=(1, 1), stride=(1, 1))
      (1): BatchNorm2d(48, eps=1e-05, momentum=0.1, affine=True, track_running_stats=True)
      (2): ReLU(inplace=True)
      (3): Conv2d(48, 94, kernel_size=(3, 3), stride=(1, 1), padding=(1, 1))
      (4): BatchNorm2d(94, eps=1e-05, momentum=0.1, affine=True, track_running_stats=True)
      (5): ReLU(inplace=True)
    )
    (branch5x5): Sequential(
      (0): Conv2d(309, 32, kernel_size=(1, 1), stride=(1, 1))
      (1): BatchNorm2d(32, eps=1e-05, momentum=0.1, affine=True, track_running_stats=True)
      (2): ReLU(inplace=True)
      (3): Conv2d(32, 47, kernel_size=(3, 3), stride=(1, 1), padding=(1, 1))
      (4): BatchNorm2d(47, eps=1e-05, momentum=0.1, affine=True, track_running_stats=True)
      (5): ReLU(inplace=True)
      (6): Conv2d(47, 54, kernel_size=(3, 3), stride=(1, 1), padding=(1, 1))
      (7): BatchNorm2d(54, eps=1e-05, momentum=0.1, affine=True, track_running_stats=True)
      (8): ReLU(inplace=True)
    )
    (branch_pool): Sequential(
      (0): MaxPool2d(kernel_size=3, stride=1, padding=1, dilation=1, ceil_mode=False)
      (1): Conv2d(309, 120, kernel_size=(1, 1), stride=(1, 1))
      (2): BatchNorm2d(120, eps=1e-05, momentum=0.1, affine=True, track_running_stats=True)
      (3): ReLU(inplace=True)
    )
  )
  (avgpool): AvgPool2d(kernel_size=8, stride=1, padding=0)
  (linear): Linear(in_features=419, out_features=10, bias=True)
)
11/04 07:58:34 PM | Epoch[0]
11/04 07:58:34 PM | learning_rate: 0.02
11/04 07:58:35 PM |   (0/196):Loss 0.0479 Prec@1(1,5) 99.22, 100.00
11/04 07:58:46 PM |   (50/196):Loss 0.0382 Prec@1(1,5) 99.07, 100.00
11/04 07:58:57 PM |   (100/196):Loss 0.0382 Prec@1(1,5) 98.99, 100.00
11/04 07:59:08 PM |   (150/196):Loss 0.0394 Prec@1(1,5) 98.97, 100.00
11/04 07:59:21 PM |  * Acc@1 91.670 Acc@5 99.770
…
