…
lse, seed=1, lr_finetuning=0.006, epoch_finetuning=200, wd=0.0001, data_dir='./data/imagenet/', print_freq=250, num_classes=1000, device_ids=[0, 1, 2, 3], device=device(type='cuda', index=0), name_base='module.')
10/29 08:33:08 PM | ----------------------------------------
10/29 08:33:08 PM | ==> Building model...
10/29 08:33:09 PM | ----------------------------------------
10/29 08:33:09 PM | ==> Loading weights into the model...
10/29 08:33:09 PM | Option: multi-GPU
10/29 08:33:09 PM | ----------------------------------------
10/29 08:33:09 PM | DataParallel(
  (module): ResNet50(
    (conv1): Conv2d(3, 43, kernel_size=(7, 7), stride=(2, 2), padding=(3, 3), bias=False)
    (bn1): BatchNorm2d(43, eps=1e-05, momentum=0.1, affine=True, track_running_stats=True)
    (relu): ReLU(inplace=True)
    (maxpool): MaxPool2d(kernel_size=3, stride=2, padding=1, dilation=1, ceil_mode=False)
    (layer1): ModuleList(
      (0): Bottleneck(
        (conv1): Conv2d(43, 32, kernel_size=(1, 1), stride=(1, 1), bias=False)
        (bn1): BatchNorm2d(32, eps=1e-05, momentum=0.1, affine=True, track_running_stats=True)
        (relu1): ReLU(inplace=True)
        (conv2): Conv2d(32, 20, kernel_size=(3, 3), stride=(1, 1), padding=(1, 1), bias=False)
        (bn2): BatchNorm2d(20, eps=1e-05, momentum=0.1, affine=True, track_running_stats=True)
        (relu2): ReLU(inplace=True)
        (conv3): Conv2d(20, 174, kernel_size=(1, 1), stride=(1, 1), bias=False)
        (bn3): BatchNorm2d(174, eps=1e-05, momentum=0.1, affine=True, track_running_stats=True)
        (downsample): Sequential(
          (0): Conv2d(43, 174, kernel_size=(1, 1), stride=(1, 1), bias=False)
          (1): BatchNorm2d(174, eps=1e-05, momentum=0.1, affine=True, track_running_stats=True)
        )
        (relu3): ReLU(inplace=True)
      )
      (1): Bottleneck(
        (conv1): Conv2d(174, 1, kernel_size=(1, 1), stride=(1, 1), bias=False)
        (bn1): BatchNorm2d(1, eps=1e-05, momentum=0.1, affine=True, track_running_stats=True)
        (relu1): ReLU(inplace=True)
        (conv2): Conv2d(1, 5, kernel_size=(3, 3), stride=(1, 1), padding=(1, 1), bias=False)
        (bn2): BatchNorm2d(5, eps=1e-05, momentum=0.1, affine=True, track_running_stats=True)
        (relu2): ReLU(inplace=True)
        (conv3): Conv2d(5, 174, kernel_size=(1, 1), stride=(1, 1), bias=False)
        (bn3): BatchNorm2d(174, eps=1e-05, momentum=0.1, affine=True, track_running_stats=True)
        (relu3): ReLU(inplace=True)
      )
      (2): Bottleneck(
        (conv1): Conv2d(174, 1, kernel_size=(1, 1), stride=(1, 1), bias=False)
        (bn1): BatchNorm2d(1, eps=1e-05, momentum=0.1, affine=True, track_running_stats=True)
        (relu1): ReLU(inplace=True)
        (conv2): Conv2d(1, 2, kernel_size=(3, 3), stride=(1, 1), padding=(1, 1), bias=False)
        (bn2): BatchNorm2d(2, eps=1e-05, momentum=0.1, affine=True, track_running_stats=True)
        (relu2): ReLU(inplace=True)
        (conv3): Conv2d(2, 174, kernel_size=(1, 1), stride=(1, 1), bias=False)
        (bn3): BatchNorm2d(174, eps=1e-05, momentum=0.1, affine=True, track_running_stats=True)
        (relu3): ReLU(inplace=True)
      )
    )
    (layer2): ModuleList(
      (0): Bottleneck(
        (conv1): Conv2d(174, 34, kernel_size=(1, 1), stride=(1, 1), bias=False)
        (bn1): BatchNorm2d(34, eps=1e-05, momentum=0.1, affine=True, track_running_stats=True)
        (relu1): ReLU(inplace=True)
        (conv2): Conv2d(34, 76, kernel_size=(3, 3), stride=(2, 2), padding=(1, 1), bias=False)
        (bn2): BatchNorm2d(76, eps=1e-05, momentum=0.1, affine=True, track_running_stats=True)
        (relu2): ReLU(inplace=True)
        (conv3): Conv2d(76, 432, kernel_size=(1, 1), stride=(1, 1), bias=False)
        (bn3): BatchNorm2d(432, eps=1e-05, momentum=0.1, affine=True, track_running_stats=True)
        (downsample): Sequential(
          (0): Conv2d(174, 432, kernel_size=(1, 1), stride=(2, 2), bias=False)
          (1): BatchNorm2d(432, eps=1e-05, momentum=0.1, affine=True, track_running_stats=True)
        )
        (relu3): ReLU(inplace=True)
      )
      (1): Bottleneck(
        (conv1): Conv2d(432, 21, kernel_size=(1, 1), stride=(1, 1), bias=False)
        (bn1): BatchNorm2d(21, eps=1e-05, momentum=0.1, affine=True, track_running_stats=True)
        (relu1): ReLU(inplace=True)
        (conv2): Conv2d(21, 51, kernel_size=(3, 3), stride=(1, 1), padding=(1, 1), bias=False)
        (bn2): BatchNorm2d(51, eps=1e-05, momentum=0.1, affine=True, track_running_stats=True)
        (relu2): ReLU(inplace=True)
        (conv3): Conv2d(51, 432, kernel_size=(1, 1), stride=(1, 1), bias=False)
        (bn3): BatchNorm2d(432, eps=1e-05, momentum=0.1, affine=True, track_running_stats=True)
        (relu3): ReLU(inplace=True)
      )
      (2): Bottleneck(
        (conv1): Conv2d(432, 48, kernel_size=(1, 1), stride=(1, 1), bias=False)
        (bn1): BatchNorm2d(48, eps=1e-05, momentum=0.1, affine=True, track_running_stats=True)
        (relu1): ReLU(inplace=True)
        (conv2): Conv2d(48, 60, kernel_size=(3, 3), stride=(1, 1), padding=(1, 1), bias=False)
        (bn2): BatchNorm2d(60, eps=1e-05, momentum=0.1, affine=True, track_running_stats=True)
        (relu2): ReLU(inplace=True)
        (conv3): Conv2d(60, 432, kernel_size=(1, 1), stride=(1, 1), bias=False)
        (bn3): BatchNorm2d(432, eps=1e-05, momentum=0.1, affine=True, track_running_stats=True)
        (relu3): ReLU(inplace=True)
      )
      (3): Bottleneck(
        (conv1): Conv2d(432, 42, kernel_size=(1, 1), stride=(1, 1), bias=False)
        (bn1): BatchNorm2d(42, eps=1e-05, momentum=0.1, affine=True, track_running_stats=True)
        (relu1): ReLU(inplace=True)
        (conv2): Conv2d(42, 69, kernel_size=(3, 3), stride=(1, 1), padding=(1, 1), bias=False)
        (bn2): BatchNorm2d(69, eps=1e-05, momentum=0.1, affine=True, track_running_stats=True)
        (relu2): ReLU(inplace=True)
        (conv3): Conv2d(69, 432, kernel_size=(1, 1), stride=(1, 1), bias=False)
        (bn3): BatchNorm2d(432, eps=1e-05, momentum=0.1, affine=True, track_running_stats=True)
        (relu3): ReLU(inplace=True)
      )
    )
    (layer3): ModuleList(
      (0): Bottleneck(
        (conv1): Conv2d(432, 111, kernel_size=(1, 1), stride=(1, 1), bias=False)
        (bn1): BatchNorm2d(111, eps=1e-05, momentum=0.1, affine=True, track_running_stats=True)
        (relu1): ReLU(inplace=True)
        (conv2): Conv2d(111, 187, kernel_size=(3, 3), stride=(2, 2), padding=(1, 1), bias=False)
        (bn2): BatchNorm2d(187, eps=1e-05, momentum=0.1, affine=True, track_running_stats=True)
        (relu2): ReLU(inplace=True)
        (conv3): Conv2d(187, 814, kernel_size=(1, 1), stride=(1, 1), bias=False)
        (bn3): BatchNorm2d(814, eps=1e-05, momentum=0.1, affine=True, track_running_stats=True)
        (downsample): Sequential(
          (0): Conv2d(432, 814, kernel_size=(1, 1), stride=(2, 2), bias=False)
          (1): BatchNorm2d(814, eps=1e-05, momentum=0.1, affine=True, track_running_stats=True)
        )
        (relu3): ReLU(inplace=True)
      )
      (1): Bottleneck(
        (conv1): Conv2d(814, 88, kernel_size=(1, 1), stride=(1, 1), bias=False)
        (bn1): BatchNorm2d(88, eps=1e-05, momentum=0.1, affine=True, track_running_stats=True)
        (relu1): ReLU(inplace=True)
        (conv2): Conv2d(88, 109, kernel_size=(3, 3), stride=(1, 1), padding=(1, 1), bias=False)
        (bn2): BatchNorm2d(109, eps=1e-05, momentum=0.1, affine=True, track_running_stats=True)
        (relu2): ReLU(inplace=True)
        (conv3): Conv2d(109, 814, kernel_size=(1, 1), stride=(1, 1), bias=False)
        (bn3): BatchNorm2d(814, eps=1e-05, momentum=0.1, affine=True, track_running_stats=True)
        (relu3): ReLU(inplace=True)
      )
      (2): Bottleneck(
        (conv1): Conv2d(814, 89, kernel_size=(1, 1), stride=(1, 1), bias=False)
        (bn1): BatchNorm2d(89, eps=1e-05, momentum=0.1, affine=True, track_running_stats=True)
        (relu1): ReLU(inplace=True)
        (conv2): Conv2d(89, 125, kernel_size=(3, 3), stride=(1, 1), padding=(1, 1), bias=False)
        (bn2): BatchNorm2d(125, eps=1e-05, momentum=0.1, affine=True, track_running_stats=True)
        (relu2): ReLU(inplace=True)
        (conv3): Conv2d(125, 814, kernel_size=(1, 1), stride=(1, 1), bias=False)
        (bn3): BatchNorm2d(814, eps=1e-05, momentum=0.1, affine=True, track_running_stats=True)
        (relu3): ReLU(inplace=True)
      )
      (3): Bottleneck(
        (conv1): Conv2d(814, 91, kernel_size=(1, 1), stride=(1, 1), bias=False)
        (bn1): BatchNorm2d(91, eps=1e-05, momentum=0.1, affine=True, track_running_stats=True)
        (relu1): ReLU(inplace=True)
        (conv2): Conv2d(91, 86, kernel_size=(3, 3), stride=(1, 1), padding=(1, 1), bias=False)
        (bn2): BatchNorm2d(86, eps=1e-05, momentum=0.1, affine=True, track_running_stats=True)
        (relu2): ReLU(inplace=True)
        (conv3): Conv2d(86, 814, kernel_size=(1, 1), stride=(1, 1), bias=False)
        (bn3): BatchNorm2d(814, eps=1e-05, momentum=0.1, affine=True, track_running_stats=True)
        (relu3): ReLU(inplace=True)
      )
      (4): Bottleneck(
        (conv1): Conv2d(814, 72, kernel_size=(1, 1), stride=(1, 1), bias=False)
        (bn1): BatchNorm2d(72, eps=1e-05, momentum=0.1, affine=True, track_running_stats=True)
        (relu1): ReLU(inplace=True)
        (conv2): Conv2d(72, 86, kernel_size=(3, 3), stride=(1, 1), padding=(1, 1), bias=False)
        (bn2): BatchNorm2d(86, eps=1e-05, momentum=0.1, affine=True, track_running_stats=True)
        (relu2): ReLU(inplace=True)
        (conv3): Conv2d(86, 814, kernel_size=(1, 1), stride=(1, 1), bias=False)
        (bn3): BatchNorm2d(814, eps=1e-05, momentum=0.1, affine=True, track_running_stats=True)
        (relu3): ReLU(inplace=True)
      )
      (5): Bottleneck(
        (conv1): Conv2d(814, 78, kernel_size=(1, 1), stride=(1, 1), bias=False)
        (bn1): BatchNorm2d(78, eps=1e-05, momentum=0.1, affine=True, track_running_stats=True)
        (relu1): ReLU(inplace=True)
        (conv2): Conv2d(78, 76, kernel_size=(3, 3), stride=(1, 1), padding=(1, 1), bias=False)
        (bn2): BatchNorm2d(76, eps=1e-05, momentum=0.1, affine=True, track_running_stats=True)
        (relu2): ReLU(inplace=True)
        (conv3): Conv2d(76, 814, kernel_size=(1, 1), stride=(1, 1), bias=False)
        (bn3): BatchNorm2d(814, eps=1e-05, momentum=0.1, affine=True, track_running_stats=True)
        (relu3): ReLU(inplace=True)
      )
    )
    (layer4): ModuleList(
      (0): Bottleneck(
        (conv1): Conv2d(814, 286, kernel_size=(1, 1), stride=(1, 1), bias=False)
        (bn1): BatchNorm2d(286, eps=1e-05, momentum=0.1, affine=True, track_running_stats=True)
        (relu1): ReLU(inplace=True)
        (conv2): Conv2d(286, 378, kernel_size=(3, 3), stride=(2, 2), padding=(1, 1), bias=False)
        (bn2): BatchNorm2d(378, eps=1e-05, momentum=0.1, affine=True, track_running_stats=True)
        (relu2): ReLU(inplace=True)
        (conv3): Conv2d(378, 1551, kernel_size=(1, 1), stride=(1, 1), bias=False)
        (bn3): BatchNorm2d(1551, eps=1e-05, momentum=0.1, affine=True, track_running_stats=True)
        (downsample): Sequential(
          (0): Conv2d(814, 1551, kernel_size=(1, 1), stride=(2, 2), bias=False)
          (1): BatchNorm2d(1551, eps=1e-05, momentum=0.1, affine=True, track_running_stats=True)
        )
        (relu3): ReLU(inplace=True)
      )
      (1): Bottleneck(
        (conv1): Conv2d(1551, 244, kernel_size=(1, 1), stride=(1, 1), bias=False)
        (bn1): BatchNorm2d(244, eps=1e-05, momentum=0.1, affine=True, track_running_stats=True)
        (relu1): ReLU(inplace=True)
        (conv2): Conv2d(244, 233, kernel_size=(3, 3), stride=(1, 1), padding=(1, 1), bias=False)
        (bn2): BatchNorm2d(233, eps=1e-05, momentum=0.1, affine=True, track_running_stats=True)
        (relu2): ReLU(inplace=True)
        (conv3): Conv2d(233, 1551, kernel_size=(1, 1), stride=(1, 1), bias=False)
        (bn3): BatchNorm2d(1551, eps=1e-05, momentum=0.1, affine=True, track_running_stats=True)
        (relu3): ReLU(inplace=True)
      )
      (2): Bottleneck(
        (conv1): Conv2d(1551, 310, kernel_size=(1, 1), stride=(1, 1), bias=False)
        (bn1): BatchNorm2d(310, eps=1e-05, momentum=0.1, affine=True, track_running_stats=True)
        (relu1): ReLU(inplace=True)
        (conv2): Conv2d(310, 316, kernel_size=(3, 3), stride=(1, 1), padding=(1, 1), bias=False)
        (bn2): BatchNorm2d(316, eps=1e-05, momentum=0.1, affine=True, track_running_stats=True)
        (relu2): ReLU(inplace=True)
        (conv3): Conv2d(316, 1551, kernel_size=(1, 1), stride=(1, 1), bias=False)
        (bn3): BatchNorm2d(1551, eps=1e-05, momentum=0.1, affine=True, track_running_stats=True)
        (relu3): ReLU(inplace=True)
      )
    )
    (avgpool): AdaptiveAvgPool2d(output_size=(1, 1))
    (fc): Linear(in_features=1551, out_features=1000, bias=True)
  )
)
10/29 08:34:48 PM | Epoch[0]
10/29 08:34:48 PM | learning_rate: 7.985840244114338e-07
10/29 08:35:04 PM |   (0/2503):Loss 5.6862 Prec@1(1,5) 8.59, 23.83
10/29 08:38:13 PM |   (250/2503):Loss 4.6798 Prec@1(1,5) 20.93, 41.87
10/29 08:41:34 PM |   (500/2503):Loss 4.1872 Prec@1(1,5) 29.55, 52.43
10/29 08:44:55 PM |   (750/2503):Loss 3.8978 Prec@1(1,5) 34.96, 58.46
…
