…
lse, seed=1, lr_finetuning=0.006, epoch_finetuning=200, wd=0.0001, data_dir='./data/imagenet/', print_freq=250, num_classes=1000, device_ids=[4, 5, 6, 7], device=device(type='cuda', index=0), name_base='module.')
10/29 08:33:45 PM | ----------------------------------------
10/29 08:33:45 PM | ==> Building model...
10/29 08:33:45 PM | ----------------------------------------
10/29 08:33:45 PM | ==> Loading weights into the model...
10/29 08:33:46 PM | Option: multi-GPU
10/29 08:33:46 PM | ----------------------------------------
10/29 08:33:46 PM | DataParallel(
  (module): ResNet50(
    (conv1): Conv2d(3, 54, kernel_size=(7, 7), stride=(2, 2), padding=(3, 3), bias=False)
    (bn1): BatchNorm2d(54, eps=1e-05, momentum=0.1, affine=True, track_running_stats=True)
    (relu): ReLU(inplace=True)
    (maxpool): MaxPool2d(kernel_size=3, stride=2, padding=1, dilation=1, ceil_mode=False)
    (layer1): ModuleList(
      (0): Bottleneck(
        (conv1): Conv2d(54, 40, kernel_size=(1, 1), stride=(1, 1), bias=False)
        (bn1): BatchNorm2d(40, eps=1e-05, momentum=0.1, affine=True, track_running_stats=True)
        (relu1): ReLU(inplace=True)
        (conv2): Conv2d(40, 31, kernel_size=(3, 3), stride=(1, 1), padding=(1, 1), bias=False)
        (bn2): BatchNorm2d(31, eps=1e-05, momentum=0.1, affine=True, track_running_stats=True)
        (relu2): ReLU(inplace=True)
        (conv3): Conv2d(31, 194, kernel_size=(1, 1), stride=(1, 1), bias=False)
        (bn3): BatchNorm2d(194, eps=1e-05, momentum=0.1, affine=True, track_running_stats=True)
        (downsample): Sequential(
          (0): Conv2d(54, 194, kernel_size=(1, 1), stride=(1, 1), bias=False)
          (1): BatchNorm2d(194, eps=1e-05, momentum=0.1, affine=True, track_running_stats=True)
        )
        (relu3): ReLU(inplace=True)
      )
      (1): Bottleneck(
        (conv1): Conv2d(194, 7, kernel_size=(1, 1), stride=(1, 1), bias=False)
        (bn1): BatchNorm2d(7, eps=1e-05, momentum=0.1, affine=True, track_running_stats=True)
        (relu1): ReLU(inplace=True)
        (conv2): Conv2d(7, 17, kernel_size=(3, 3), stride=(1, 1), padding=(1, 1), bias=False)
        (bn2): BatchNorm2d(17, eps=1e-05, momentum=0.1, affine=True, track_running_stats=True)
        (relu2): ReLU(inplace=True)
        (conv3): Conv2d(17, 194, kernel_size=(1, 1), stride=(1, 1), bias=False)
        (bn3): BatchNorm2d(194, eps=1e-05, momentum=0.1, affine=True, track_running_stats=True)
        (relu3): ReLU(inplace=True)
      )
      (2): Bottleneck(
        (conv1): Conv2d(194, 10, kernel_size=(1, 1), stride=(1, 1), bias=False)
        (bn1): BatchNorm2d(10, eps=1e-05, momentum=0.1, affine=True, track_running_stats=True)
        (relu1): ReLU(inplace=True)
        (conv2): Conv2d(10, 13, kernel_size=(3, 3), stride=(1, 1), padding=(1, 1), bias=False)
        (bn2): BatchNorm2d(13, eps=1e-05, momentum=0.1, affine=True, track_running_stats=True)
        (relu2): ReLU(inplace=True)
        (conv3): Conv2d(13, 194, kernel_size=(1, 1), stride=(1, 1), bias=False)
        (bn3): BatchNorm2d(194, eps=1e-05, momentum=0.1, affine=True, track_running_stats=True)
        (relu3): ReLU(inplace=True)
      )
    )
    (layer2): ModuleList(
      (0): Bottleneck(
        (conv1): Conv2d(194, 59, kernel_size=(1, 1), stride=(1, 1), bias=False)
        (bn1): BatchNorm2d(59, eps=1e-05, momentum=0.1, affine=True, track_running_stats=True)
        (relu1): ReLU(inplace=True)
        (conv2): Conv2d(59, 101, kernel_size=(3, 3), stride=(2, 2), padding=(1, 1), bias=False)
        (bn2): BatchNorm2d(101, eps=1e-05, momentum=0.1, affine=True, track_running_stats=True)
        (relu2): ReLU(inplace=True)
        (conv3): Conv2d(101, 459, kernel_size=(1, 1), stride=(1, 1), bias=False)
        (bn3): BatchNorm2d(459, eps=1e-05, momentum=0.1, affine=True, track_running_stats=True)
        (downsample): Sequential(
          (0): Conv2d(194, 459, kernel_size=(1, 1), stride=(2, 2), bias=False)
          (1): BatchNorm2d(459, eps=1e-05, momentum=0.1, affine=True, track_running_stats=True)
        )
        (relu3): ReLU(inplace=True)
      )
      (1): Bottleneck(
        (conv1): Conv2d(459, 41, kernel_size=(1, 1), stride=(1, 1), bias=False)
        (bn1): BatchNorm2d(41, eps=1e-05, momentum=0.1, affine=True, track_running_stats=True)
        (relu1): ReLU(inplace=True)
        (conv2): Conv2d(41, 71, kernel_size=(3, 3), stride=(1, 1), padding=(1, 1), bias=False)
        (bn2): BatchNorm2d(71, eps=1e-05, momentum=0.1, affine=True, track_running_stats=True)
        (relu2): ReLU(inplace=True)
        (conv3): Conv2d(71, 459, kernel_size=(1, 1), stride=(1, 1), bias=False)
        (bn3): BatchNorm2d(459, eps=1e-05, momentum=0.1, affine=True, track_running_stats=True)
        (relu3): ReLU(inplace=True)
      )
      (2): Bottleneck(
        (conv1): Conv2d(459, 63, kernel_size=(1, 1), stride=(1, 1), bias=False)
        (bn1): BatchNorm2d(63, eps=1e-05, momentum=0.1, affine=True, track_running_stats=True)
        (relu1): ReLU(inplace=True)
        (conv2): Conv2d(63, 79, kernel_size=(3, 3), stride=(1, 1), padding=(1, 1), bias=False)
        (bn2): BatchNorm2d(79, eps=1e-05, momentum=0.1, affine=True, track_running_stats=True)
        (relu2): ReLU(inplace=True)
        (conv3): Conv2d(79, 459, kernel_size=(1, 1), stride=(1, 1), bias=False)
        (bn3): BatchNorm2d(459, eps=1e-05, momentum=0.1, affine=True, track_running_stats=True)
        (relu3): ReLU(inplace=True)
      )
      (3): Bottleneck(
        (conv1): Conv2d(459, 66, kernel_size=(1, 1), stride=(1, 1), bias=False)
        (bn1): BatchNorm2d(66, eps=1e-05, momentum=0.1, affine=True, track_running_stats=True)
        (relu1): ReLU(inplace=True)
        (conv2): Conv2d(66, 97, kernel_size=(3, 3), stride=(1, 1), padding=(1, 1), bias=False)
        (bn2): BatchNorm2d(97, eps=1e-05, momentum=0.1, affine=True, track_running_stats=True)
        (relu2): ReLU(inplace=True)
        (conv3): Conv2d(97, 459, kernel_size=(1, 1), stride=(1, 1), bias=False)
        (bn3): BatchNorm2d(459, eps=1e-05, momentum=0.1, affine=True, track_running_stats=True)
        (relu3): ReLU(inplace=True)
      )
    )
    (layer3): ModuleList(
      (0): Bottleneck(
        (conv1): Conv2d(459, 193, kernel_size=(1, 1), stride=(1, 1), bias=False)
        (bn1): BatchNorm2d(193, eps=1e-05, momentum=0.1, affine=True, track_running_stats=True)
        (relu1): ReLU(inplace=True)
        (conv2): Conv2d(193, 232, kernel_size=(3, 3), stride=(2, 2), padding=(1, 1), bias=False)
        (bn2): BatchNorm2d(232, eps=1e-05, momentum=0.1, affine=True, track_running_stats=True)
        (relu2): ReLU(inplace=True)
        (conv3): Conv2d(232, 872, kernel_size=(1, 1), stride=(1, 1), bias=False)
        (bn3): BatchNorm2d(872, eps=1e-05, momentum=0.1, affine=True, track_running_stats=True)
        (downsample): Sequential(
          (0): Conv2d(459, 872, kernel_size=(1, 1), stride=(2, 2), bias=False)
          (1): BatchNorm2d(872, eps=1e-05, momentum=0.1, affine=True, track_running_stats=True)
        )
        (relu3): ReLU(inplace=True)
      )
      (1): Bottleneck(
        (conv1): Conv2d(872, 140, kernel_size=(1, 1), stride=(1, 1), bias=False)
        (bn1): BatchNorm2d(140, eps=1e-05, momentum=0.1, affine=True, track_running_stats=True)
        (relu1): ReLU(inplace=True)
        (conv2): Conv2d(140, 151, kernel_size=(3, 3), stride=(1, 1), padding=(1, 1), bias=False)
        (bn2): BatchNorm2d(151, eps=1e-05, momentum=0.1, affine=True, track_running_stats=True)
        (relu2): ReLU(inplace=True)
        (conv3): Conv2d(151, 872, kernel_size=(1, 1), stride=(1, 1), bias=False)
        (bn3): BatchNorm2d(872, eps=1e-05, momentum=0.1, affine=True, track_running_stats=True)
        (relu3): ReLU(inplace=True)
      )
      (2): Bottleneck(
        (conv1): Conv2d(872, 138, kernel_size=(1, 1), stride=(1, 1), bias=False)
        (bn1): BatchNorm2d(138, eps=1e-05, momentum=0.1, affine=True, track_running_stats=True)
        (relu1): ReLU(inplace=True)
        (conv2): Conv2d(138, 190, kernel_size=(3, 3), stride=(1, 1), padding=(1, 1), bias=False)
        (bn2): BatchNorm2d(190, eps=1e-05, momentum=0.1, affine=True, track_running_stats=True)
        (relu2): ReLU(inplace=True)
        (conv3): Conv2d(190, 872, kernel_size=(1, 1), stride=(1, 1), bias=False)
        (bn3): BatchNorm2d(872, eps=1e-05, momentum=0.1, affine=True, track_running_stats=True)
        (relu3): ReLU(inplace=True)
      )
      (3): Bottleneck(
        (conv1): Conv2d(872, 139, kernel_size=(1, 1), stride=(1, 1), bias=False)
        (bn1): BatchNorm2d(139, eps=1e-05, momentum=0.1, affine=True, track_running_stats=True)
        (relu1): ReLU(inplace=True)
        (conv2): Conv2d(139, 147, kernel_size=(3, 3), stride=(1, 1), padding=(1, 1), bias=False)
        (bn2): BatchNorm2d(147, eps=1e-05, momentum=0.1, affine=True, track_running_stats=True)
        (relu2): ReLU(inplace=True)
        (conv3): Conv2d(147, 872, kernel_size=(1, 1), stride=(1, 1), bias=False)
        (bn3): BatchNorm2d(872, eps=1e-05, momentum=0.1, affine=True, track_running_stats=True)
        (relu3): ReLU(inplace=True)
      )
      (4): Bottleneck(
        (conv1): Conv2d(872, 135, kernel_size=(1, 1), stride=(1, 1), bias=False)
        (bn1): BatchNorm2d(135, eps=1e-05, momentum=0.1, affine=True, track_running_stats=True)
        (relu1): ReLU(inplace=True)
        (conv2): Conv2d(135, 127, kernel_size=(3, 3), stride=(1, 1), padding=(1, 1), bias=False)
        (bn2): BatchNorm2d(127, eps=1e-05, momentum=0.1, affine=True, track_running_stats=True)
        (relu2): ReLU(inplace=True)
        (conv3): Conv2d(127, 872, kernel_size=(1, 1), stride=(1, 1), bias=False)
        (bn3): BatchNorm2d(872, eps=1e-05, momentum=0.1, affine=True, track_running_stats=True)
        (relu3): ReLU(inplace=True)
      )
      (5): Bottleneck(
        (conv1): Conv2d(872, 135, kernel_size=(1, 1), stride=(1, 1), bias=False)
        (bn1): BatchNorm2d(135, eps=1e-05, momentum=0.1, affine=True, track_running_stats=True)
        (relu1): ReLU(inplace=True)
        (conv2): Conv2d(135, 136, kernel_size=(3, 3), stride=(1, 1), padding=(1, 1), bias=False)
        (bn2): BatchNorm2d(136, eps=1e-05, momentum=0.1, affine=True, track_running_stats=True)
        (relu2): ReLU(inplace=True)
        (conv3): Conv2d(136, 872, kernel_size=(1, 1), stride=(1, 1), bias=False)
        (bn3): BatchNorm2d(872, eps=1e-05, momentum=0.1, affine=True, track_running_stats=True)
        (relu3): ReLU(inplace=True)
      )
    )
    (layer4): ModuleList(
      (0): Bottleneck(
        (conv1): Conv2d(872, 436, kernel_size=(1, 1), stride=(1, 1), bias=False)
        (bn1): BatchNorm2d(436, eps=1e-05, momentum=0.1, affine=True, track_running_stats=True)
        (relu1): ReLU(inplace=True)
        (conv2): Conv2d(436, 464, kernel_size=(3, 3), stride=(2, 2), padding=(1, 1), bias=False)
        (bn2): BatchNorm2d(464, eps=1e-05, momentum=0.1, affine=True, track_running_stats=True)
        (relu2): ReLU(inplace=True)
        (conv3): Conv2d(464, 1780, kernel_size=(1, 1), stride=(1, 1), bias=False)
        (bn3): BatchNorm2d(1780, eps=1e-05, momentum=0.1, affine=True, track_running_stats=True)
        (downsample): Sequential(
          (0): Conv2d(872, 1780, kernel_size=(1, 1), stride=(2, 2), bias=False)
          (1): BatchNorm2d(1780, eps=1e-05, momentum=0.1, affine=True, track_running_stats=True)
        )
        (relu3): ReLU(inplace=True)
      )
      (1): Bottleneck(
        (conv1): Conv2d(1780, 437, kernel_size=(1, 1), stride=(1, 1), bias=False)
        (bn1): BatchNorm2d(437, eps=1e-05, momentum=0.1, affine=True, track_running_stats=True)
        (relu1): ReLU(inplace=True)
        (conv2): Conv2d(437, 438, kernel_size=(3, 3), stride=(1, 1), padding=(1, 1), bias=False)
        (bn2): BatchNorm2d(438, eps=1e-05, momentum=0.1, affine=True, track_running_stats=True)
        (relu2): ReLU(inplace=True)
        (conv3): Conv2d(438, 1780, kernel_size=(1, 1), stride=(1, 1), bias=False)
        (bn3): BatchNorm2d(1780, eps=1e-05, momentum=0.1, affine=True, track_running_stats=True)
        (relu3): ReLU(inplace=True)
      )
      (2): Bottleneck(
        (conv1): Conv2d(1780, 447, kernel_size=(1, 1), stride=(1, 1), bias=False)
        (bn1): BatchNorm2d(447, eps=1e-05, momentum=0.1, affine=True, track_running_stats=True)
        (relu1): ReLU(inplace=True)
        (conv2): Conv2d(447, 415, kernel_size=(3, 3), stride=(1, 1), padding=(1, 1), bias=False)
        (bn2): BatchNorm2d(415, eps=1e-05, momentum=0.1, affine=True, track_running_stats=True)
        (relu2): ReLU(inplace=True)
        (conv3): Conv2d(415, 1780, kernel_size=(1, 1), stride=(1, 1), bias=False)
        (bn3): BatchNorm2d(1780, eps=1e-05, momentum=0.1, affine=True, track_running_stats=True)
        (relu3): ReLU(inplace=True)
      )
    )
    (avgpool): AdaptiveAvgPool2d(output_size=(1, 1))
    (fc): Linear(in_features=1780, out_features=1000, bias=True)
  )
)
10/29 08:35:41 PM | Epoch[0]
10/29 08:35:41 PM | learning_rate: 7.985840244114338e-07
10/29 08:35:59 PM |   (0/2503):Loss 3.5529 Prec@1(1,5) 42.19, 65.23
10/29 08:39:12 PM |   (250/2503):Loss 3.0824 Prec@1(1,5) 51.67, 75.37
10/29 08:42:29 PM |   (500/2503):Loss 2.8758 Prec@1(1,5) 56.58, 79.02
10/29 08:45:52 PM |   (750/2503):Loss 2.7638 Prec@1(1,5) 59.15, 80.87
…
