…
, gamma=0.2, gpu='7', num_workers=4, dataset='cifar10', arch='densenet_40', save_plot=False, seed=9, lr_finetuning=0.02, epoch_finetuning=200, wd=0.002, data_dir='./data/cifar10/', print_freq=50, num_classes=10, device_ids=[7], device=device(type='cuda', index=0), name_base='')
11/11 09:38:29 PM | ----------------------------------------
11/11 09:38:29 PM | ==> Building model...
11/11 09:38:29 PM | ----------------------------------------
11/11 09:38:29 PM | ==> Loading weights into the model...
11/11 09:38:29 PM | ----------------------------------------
11/11 09:38:29 PM | DenseNet(
  (conv1): Conv2d(3, 20, kernel_size=(3, 3), stride=(1, 1), padding=(1, 1), bias=False)
  (dense1): Sequential(
    (0): DenseBasicBlock(
      (bn1): BatchNorm2d(20, eps=1e-05, momentum=0.1, affine=True, track_running_stats=True)
      (relu): ReLU(inplace=True)
      (conv1): Conv2d(20, 11, kernel_size=(3, 3), stride=(1, 1), padding=(1, 1), bias=False)
    )
    (1): DenseBasicBlock(
      (bn1): BatchNorm2d(31, eps=1e-05, momentum=0.1, affine=True, track_running_stats=True)
      (relu): ReLU(inplace=True)
      (conv1): Conv2d(31, 6, kernel_size=(3, 3), stride=(1, 1), padding=(1, 1), bias=False)
    )
    (2): DenseBasicBlock(
      (bn1): BatchNorm2d(37, eps=1e-05, momentum=0.1, affine=True, track_running_stats=True)
      (relu): ReLU(inplace=True)
      (conv1): Conv2d(37, 12, kernel_size=(3, 3), stride=(1, 1), padding=(1, 1), bias=False)
    )
    (3): DenseBasicBlock(
      (bn1): BatchNorm2d(49, eps=1e-05, momentum=0.1, affine=True, track_running_stats=True)
      (relu): ReLU(inplace=True)
      (conv1): Conv2d(49, 9, kernel_size=(3, 3), stride=(1, 1), padding=(1, 1), bias=False)
    )
    (4): DenseBasicBlock(
      (bn1): BatchNorm2d(58, eps=1e-05, momentum=0.1, affine=True, track_running_stats=True)
      (relu): ReLU(inplace=True)
      (conv1): Conv2d(58, 9, kernel_size=(3, 3), stride=(1, 1), padding=(1, 1), bias=False)
    )
    (5): DenseBasicBlock(
      (bn1): BatchNorm2d(67, eps=1e-05, momentum=0.1, affine=True, track_running_stats=True)
      (relu): ReLU(inplace=True)
      (conv1): Conv2d(67, 11, kernel_size=(3, 3), stride=(1, 1), padding=(1, 1), bias=False)
    )
    (6): DenseBasicBlock(
      (bn1): BatchNorm2d(78, eps=1e-05, momentum=0.1, affine=True, track_running_stats=True)
      (relu): ReLU(inplace=True)
      (conv1): Conv2d(78, 10, kernel_size=(3, 3), stride=(1, 1), padding=(1, 1), bias=False)
    )
    (7): DenseBasicBlock(
      (bn1): BatchNorm2d(88, eps=1e-05, momentum=0.1, affine=True, track_running_stats=True)
      (relu): ReLU(inplace=True)
      (conv1): Conv2d(88, 9, kernel_size=(3, 3), stride=(1, 1), padding=(1, 1), bias=False)
    )
    (8): DenseBasicBlock(
      (bn1): BatchNorm2d(97, eps=1e-05, momentum=0.1, affine=True, track_running_stats=True)
      (relu): ReLU(inplace=True)
      (conv1): Conv2d(97, 8, kernel_size=(3, 3), stride=(1, 1), padding=(1, 1), bias=False)
    )
    (9): DenseBasicBlock(
      (bn1): BatchNorm2d(105, eps=1e-05, momentum=0.1, affine=True, track_running_stats=True)
      (relu): ReLU(inplace=True)
      (conv1): Conv2d(105, 3, kernel_size=(3, 3), stride=(1, 1), padding=(1, 1), bias=False)
    )
    (10): DenseBasicBlock(
      (bn1): BatchNorm2d(108, eps=1e-05, momentum=0.1, affine=True, track_running_stats=True)
      (relu): ReLU(inplace=True)
      (conv1): Conv2d(108, 8, kernel_size=(3, 3), stride=(1, 1), padding=(1, 1), bias=False)
    )
    (11): DenseBasicBlock(
      (bn1): BatchNorm2d(116, eps=1e-05, momentum=0.1, affine=True, track_running_stats=True)
      (relu): ReLU(inplace=True)
      (conv1): Conv2d(116, 4, kernel_size=(3, 3), stride=(1, 1), padding=(1, 1), bias=False)
    )
  )
  (trans1): Transition(
    (bn1): BatchNorm2d(120, eps=1e-05, momentum=0.1, affine=True, track_running_stats=True)
    (relu): ReLU(inplace=True)
    (conv1): Conv2d(120, 103, kernel_size=(1, 1), stride=(1, 1), bias=False)
    (avgpool): AvgPool2d(kernel_size=2, stride=2, padding=0)
  )
  (dense2): Sequential(
    (0): DenseBasicBlock(
      (bn1): BatchNorm2d(103, eps=1e-05, momentum=0.1, affine=True, track_running_stats=True)
      (relu): ReLU(inplace=True)
      (conv1): Conv2d(103, 12, kernel_size=(3, 3), stride=(1, 1), padding=(1, 1), bias=False)
    )
    (1): DenseBasicBlock(
      (bn1): BatchNorm2d(115, eps=1e-05, momentum=0.1, affine=True, track_running_stats=True)
      (relu): ReLU(inplace=True)
      (conv1): Conv2d(115, 12, kernel_size=(3, 3), stride=(1, 1), padding=(1, 1), bias=False)
    )
    (2): DenseBasicBlock(
      (bn1): BatchNorm2d(127, eps=1e-05, momentum=0.1, affine=True, track_running_stats=True)
      (relu): ReLU(inplace=True)
      (conv1): Conv2d(127, 11, kernel_size=(3, 3), stride=(1, 1), padding=(1, 1), bias=False)
    )
    (3): DenseBasicBlock(
      (bn1): BatchNorm2d(138, eps=1e-05, momentum=0.1, affine=True, track_running_stats=True)
      (relu): ReLU(inplace=True)
      (conv1): Conv2d(138, 11, kernel_size=(3, 3), stride=(1, 1), padding=(1, 1), bias=False)
    )
    (4): DenseBasicBlock(
      (bn1): BatchNorm2d(149, eps=1e-05, momentum=0.1, affine=True, track_running_stats=True)
      (relu): ReLU(inplace=True)
      (conv1): Conv2d(149, 10, kernel_size=(3, 3), stride=(1, 1), padding=(1, 1), bias=False)
    )
    (5): DenseBasicBlock(
      (bn1): BatchNorm2d(159, eps=1e-05, momentum=0.1, affine=True, track_running_stats=True)
      (relu): ReLU(inplace=True)
      (conv1): Conv2d(159, 12, kernel_size=(3, 3), stride=(1, 1), padding=(1, 1), bias=False)
    )
    (6): DenseBasicBlock(
      (bn1): BatchNorm2d(171, eps=1e-05, momentum=0.1, affine=True, track_running_stats=True)
      (relu): ReLU(inplace=True)
      (conv1): Conv2d(171, 10, kernel_size=(3, 3), stride=(1, 1), padding=(1, 1), bias=False)
    )
    (7): DenseBasicBlock(
      (bn1): BatchNorm2d(181, eps=1e-05, momentum=0.1, affine=True, track_running_stats=True)
      (relu): ReLU(inplace=True)
      (conv1): Conv2d(181, 11, kernel_size=(3, 3), stride=(1, 1), padding=(1, 1), bias=False)
    )
    (8): DenseBasicBlock(
      (bn1): BatchNorm2d(192, eps=1e-05, momentum=0.1, affine=True, track_running_stats=True)
      (relu): ReLU(inplace=True)
      (conv1): Conv2d(192, 10, kernel_size=(3, 3), stride=(1, 1), padding=(1, 1), bias=False)
    )
    (9): DenseBasicBlock(
      (bn1): BatchNorm2d(202, eps=1e-05, momentum=0.1, affine=True, track_running_stats=True)
      (relu): ReLU(inplace=True)
      (conv1): Conv2d(202, 12, kernel_size=(3, 3), stride=(1, 1), padding=(1, 1), bias=False)
    )
    (10): DenseBasicBlock(
      (bn1): BatchNorm2d(214, eps=1e-05, momentum=0.1, affine=True, track_running_stats=True)
      (relu): ReLU(inplace=True)
      (conv1): Conv2d(214, 8, kernel_size=(3, 3), stride=(1, 1), padding=(1, 1), bias=False)
    )
    (11): DenseBasicBlock(
      (bn1): BatchNorm2d(222, eps=1e-05, momentum=0.1, affine=True, track_running_stats=True)
      (relu): ReLU(inplace=True)
      (conv1): Conv2d(222, 10, kernel_size=(3, 3), stride=(1, 1), padding=(1, 1), bias=False)
    )
  )
  (trans2): Transition(
    (bn1): BatchNorm2d(232, eps=1e-05, momentum=0.1, affine=True, track_running_stats=True)
    (relu): ReLU(inplace=True)
    (conv1): Conv2d(232, 260, kernel_size=(1, 1), stride=(1, 1), bias=False)
    (avgpool): AvgPool2d(kernel_size=2, stride=2, padding=0)
  )
  (dense3): Sequential(
    (0): DenseBasicBlock(
      (bn1): BatchNorm2d(260, eps=1e-05, momentum=0.1, affine=True, track_running_stats=True)
      (relu): ReLU(inplace=True)
      (conv1): Conv2d(260, 12, kernel_size=(3, 3), stride=(1, 1), padding=(1, 1), bias=False)
    )
    (1): DenseBasicBlock(
      (bn1): BatchNorm2d(272, eps=1e-05, momentum=0.1, affine=True, track_running_stats=True)
      (relu): ReLU(inplace=True)
      (conv1): Conv2d(272, 12, kernel_size=(3, 3), stride=(1, 1), padding=(1, 1), bias=False)
    )
    (2): DenseBasicBlock(
      (bn1): BatchNorm2d(284, eps=1e-05, momentum=0.1, affine=True, track_running_stats=True)
      (relu): ReLU(inplace=True)
      (conv1): Conv2d(284, 12, kernel_size=(3, 3), stride=(1, 1), padding=(1, 1), bias=False)
    )
    (3): DenseBasicBlock(
      (bn1): BatchNorm2d(296, eps=1e-05, momentum=0.1, affine=True, track_running_stats=True)
      (relu): ReLU(inplace=True)
      (conv1): Conv2d(296, 12, kernel_size=(3, 3), stride=(1, 1), padding=(1, 1), bias=False)
    )
    (4): DenseBasicBlock(
      (bn1): BatchNorm2d(308, eps=1e-05, momentum=0.1, affine=True, track_running_stats=True)
      (relu): ReLU(inplace=True)
      (conv1): Conv2d(308, 12, kernel_size=(3, 3), stride=(1, 1), padding=(1, 1), bias=False)
    )
    (5): DenseBasicBlock(
      (bn1): BatchNorm2d(320, eps=1e-05, momentum=0.1, affine=True, track_running_stats=True)
      (relu): ReLU(inplace=True)
      (conv1): Conv2d(320, 12, kernel_size=(3, 3), stride=(1, 1), padding=(1, 1), bias=False)
    )
    (6): DenseBasicBlock(
      (bn1): BatchNorm2d(332, eps=1e-05, momentum=0.1, affine=True, track_running_stats=True)
      (relu): ReLU(inplace=True)
      (conv1): Conv2d(332, 12, kernel_size=(3, 3), stride=(1, 1), padding=(1, 1), bias=False)
    )
    (7): DenseBasicBlock(
      (bn1): BatchNorm2d(344, eps=1e-05, momentum=0.1, affine=True, track_running_stats=True)
      (relu): ReLU(inplace=True)
      (conv1): Conv2d(344, 12, kernel_size=(3, 3), stride=(1, 1), padding=(1, 1), bias=False)
    )
    (8): DenseBasicBlock(
      (bn1): BatchNorm2d(356, eps=1e-05, momentum=0.1, affine=True, track_running_stats=True)
      (relu): ReLU(inplace=True)
      (conv1): Conv2d(356, 12, kernel_size=(3, 3), stride=(1, 1), padding=(1, 1), bias=False)
    )
    (9): DenseBasicBlock(
      (bn1): BatchNorm2d(368, eps=1e-05, momentum=0.1, affine=True, track_running_stats=True)
      (relu): ReLU(inplace=True)
      (conv1): Conv2d(368, 12, kernel_size=(3, 3), stride=(1, 1), padding=(1, 1), bias=False)
    )
    (10): DenseBasicBlock(
      (bn1): BatchNorm2d(380, eps=1e-05, momentum=0.1, affine=True, track_running_stats=True)
      (relu): ReLU(inplace=True)
      (conv1): Conv2d(380, 11, kernel_size=(3, 3), stride=(1, 1), padding=(1, 1), bias=False)
    )
    (11): DenseBasicBlock(
      (bn1): BatchNorm2d(391, eps=1e-05, momentum=0.1, affine=True, track_running_stats=True)
      (relu): ReLU(inplace=True)
      (conv1): Conv2d(391, 12, kernel_size=(3, 3), stride=(1, 1), padding=(1, 1), bias=False)
    )
  )
  (bn): BatchNorm2d(403, eps=1e-05, momentum=0.1, affine=True, track_running_stats=True)
  (relu): ReLU(inplace=True)
  (avgpool): AvgPool2d(kernel_size=8, stride=8, padding=0)
  (fc): Linear(in_features=403, out_features=10, bias=True)
)
11/11 09:38:32 PM | Epoch[0]
11/11 09:38:32 PM | learning_rate: 0.02
11/11 09:38:33 PM |   (0/196):Loss 0.1339 Prec@1(1,5) 94.53, 100.00
11/11 09:38:40 PM |   (50/196):Loss 0.1122 Prec@1(1,5) 95.93, 99.98
11/11 09:38:47 PM |   (100/196):Loss 0.0955 Prec@1(1,5) 96.61, 99.98
11/11 09:38:54 PM |   (150/196):Loss 0.0867 Prec@1(1,5) 96.96, 99.98
11/11 09:39:03 PM |  * Acc@1 92.190 Acc@5 99.730
…
